Task1/models/tinyVGGmodel.pth (torch, 47339 bytes, 26 tensors)

conv_block1.0.weight f4 [10, 3, 3, 3]
0.54685074 0.23341131 -0.32163128 -0.005109356 0.11961822 -0.06783319 -0.40363207 0.08764373
0.057711303 -0.14475322 0.28482857 0.20703773 -0.5970337 0.107295066 0.3684999 -0.71742225
0.1533448 0.34740415 -0.21961932 -0.10044063 -0.122572616 -0.5495008 0.12103621 0.5475088
-0.63259953 0.15194914 0.4667995 -0.32648522 -0.1643476 -0.5935792 0.028758183 -0.26740098
-0.2519627 0.35575876 0.25122783 0.28790992 0.20801696 0.50965524 0.25839248 0.13759725
0.57929355 0.29479697 0.12644562 0.45566598 0.6478009 0.030823626 0.3548967 0.5018186
0.0010818365 -0.03887895 -0.038933583 -0.5846846 -0.6604739 -0.10212384 -0.13228272 0.08078258
0.082964934 -0.026093876 0.52187693 0.21292211 -0.5090077 -0.03148917 0.35229686 -0.040554173
-0.02009785 -0.22916494 0.28752828 0.07833851 -0.100086816 -0.061619446 0.5267068 0.4116899
0.35206535 -0.56535286 -0.8036755 0.22775134 -0.28972164 -0.44894433 0.35791764 0.1427948
-0.34462583 0.16482837 0.68568444 0.043332327 0.98067987 0.37177813 0.24549367 0.14733401
-0.09182728 -0.07349621 -0.23604959 -0.1870862 -0.100137435 0.33768937 -0.5394726 -0.46928644
0.3196956 -0.35077003 -0.29229236 -0.5413703 -0.23572464 0.23806939 0.017110294 -0.54172647
0.03735661 0.071678236 -0.20292446 0.22337134 -0.44065353 -0.52134657 0.66082734 0.61400443
-0.0035613822 -0.1404847 0.09613557 -0.046121024 -0.18445142 -0.40643913 -0.6495412 0.443858
0.5813192 -0.26428136 0.116701424 0.05139162 -0.10292231 -0.12177646 -0.4510484 -0.6029908
0.8008455 0.1327758 -0.13985053 0.275752 -0.10834749 0.2134424 0.02719733 -0.104581475
-0.18723257 -0.22968353 0.0041238777 -0.097584896 0.042524867 -0.2013784 0.08336993 -0.19389988
-0.06691502 0.013399562 0.09029105 0.08850893 0.10939168 -0.18693337 -0.023417292 -0.15529683
-0.071712956 -0.17992602 0.10079481 -0.15304548 0.045382872 -0.042565037 0.032648716 -0.1668073
0.05699611 -0.0140153915 0.006884677 -0.25334114 -0.025662037 -0.05205911 -0.18590957 0.057320666
0.014268358 -0.13251159 -0.12165889 -0.091095485 -0.010397056 -0.14500387 -0.19244078 -0.17360063
-0.23708276 0.015615195 0.09160764 -0.20272462 0.018710136 0.0118490625 -0.03849977 -0.107046
-0.0045875674 0.0173218 0.021963356 -0.086225115 -0.05804899 0.3267849 -0.047858756 -0.34282246
0.58529454 0.9023901 -0.13570653 0.18337895 0.07717005 -0.077037014 0.0016247793 -0.12929904
-0.48856872 -0.31890884 0.3563785 -0.34090865 -0.3642228 -0.57717013 -0.5578306 -0.12796871
0.02658925 0.06334933 0.15331759 0.7751332 -0.046238426 -0.09557095 0.2181714 0.53472483
0.14115201 0.27529037 0.37416703 0.05721401 -0.8133003 0.472652 -0.13430023 -0.37605274
-0.04412794 0.115671724 0.039219253 -0.043405745 0.21489891 -1.0146978 0.029449891 0.4821403
-0.14091024 0.37560984 0.20954122 0.26157504 -0.11538038 0.30264795 -0.65177435 0.031347547
0.30488366 -0.32298702 0.0012059136 -0.111572795 -0.020017143 -0.068282254 -0.15253295 0.038148805
0.008977021 0.09241613 -0.089000486 -0.14117508 -0.034248833 -0.09176844 -0.07807542 -0.21040086
00000000: 69fe 0b3f 6003 6f3e dbac a4be 626c a7bb
00000010: 66fa f43d 21ec 8abd dda8 cebe 8e7e b33d
00000020: b062 6c3d 303a 14be 0dd5 913e b301 543e
00000030: 33d7 18bf 84bd db3d 05ac bc3e fca8 37bf
00000040: 6b06 1d3e f5de b13e e3e3 60be d1b3 cdbd
00000050: 5a07 fbbd 16ac 0cbf d5e1 f73d 8929 0c3f
00000060: 0bf2 21bf 8e98 1b3e 5800 ef3e 1229 a7be
00000070: bd4a 28be cef4 17bf 4896 eb3c c8e8 88be
00000080: 4101 81be 0326 b63e efa0 803e ee68 933e
00000090: 6602 553e c478 023f 054c 843e 4be6 0c3e
000000a0: 954c 143f a1ef 963e f67a 013e 0d4d e93e
000000b0: 48d6 253f d481 fc3c 05b5 b53e 2f77 003f
000000c0: 69cc 8d3a 893f 1fbd d278 1fbd e4ad 15bf
000000d0: d114 29bf 4e26 d1bd 1f75 07be 5671 a53d
000000e0: 85e9 a93d d3c2 d5bc ba99 053f 4108 5a3e
000000f0: 544e 02bf cafa 00bd 4160 b43e 221c 26bd
00000100: 3fa4 a4bc 37aa 6abe e836 933e f16f a03d
00000110: 51fa ccbd ac64 7cbd 42d6 063f 05c9 d23e
00000120: e941 b43e f7ba 10bf adbd 4dbf a637 693e
00000130: 6556 94be 08dc e5be fb40 b73e cd38 123e
00000140: cc72 b0be c5c8 283e 0489 2f3f 3d7d 313d
00000150: d60d 7b3f b459 be3e b162 7b3e bade 163e
00000160: f10f bcbd 2e85 96bd fcb6 71be 8693 3fbe
00000170: db14 cdbd 9fe5 ac3e e01a 0abf 5046 f0be
00000180: 24af a33e 2198 b3be 58a7 95be 3e97 0abf
00000190: cd61 71be 76c8 733e e32a 8c3c 96ae 0abf
000001a0: 3f03 193d 0acc 923d 6ecb 4fbe 75bb 643e
000001b0: 579d e1be f876 05bf fb2b 293f 652f 1d3f
000001c0: 1466 69bb 39db 0fbe bae2 c43d 66e9 3cbd
000001d0: d5e0 3cbe ca18 d0be 5548 26bf 5b41 e33e
000001e0: 56d1 143f e34f 87be 2801 ef3d 0580 523d
000001f0: efc8 d2bd f065 f9bd d1ef e6be 9b5d 1abf
00000200: 3604 4d3f 61f6 073e fa34 0fbe 5e2f 8d3e
00000210: 4ae5 ddbd a590 5a3e efcc de3c d02e d6bd
00000220: e5b9 3fbe 2932 6bbe 9821 873b 97da c7bd
00000230: 8e2e 2e3d 2436 4ebe dbbd aa3d b18d 46be
00000240: be0a 89bd d689 5b3c 84ea b83d 2b44 b53d
00000250: bf08 e03d 766b 3fbe 9fd5 bfbc 2206 1fbe
00000260: 3ede 92bd 873e 38be 826d ce3d f4b7 1cbe
00000270: 64e3 393d ad58 2ebd a9ba 053d 88cf 2abe
00000280: c174 693d d0a0 65bc db98 e13b eeb5 81be
00000290: 3139 d2bc ef3b 55bd 145f 3ebe 13c9 6a3d
000002a0: d5c5 693c 1eb1 07be 4c28 f9bd 4590 babd
000002b0: 6a58 2abc e57b 14be 320f 45be 5dc4 31be
000002c0: d3c5 72be e0d6 7f3c c99c bb3d 0b97 4fbe
000002d0: 0046 993c 9222 423c efb1 1dbd ef3a dbbd
000002e0: 4e53 96bb 73e6 8d3c 7fec b33c cb96 b0bd
000002f0: c7c4 6dbd 5a50 a73e 8b07 44bd 6d86 afbe
00000300: ddd5 153f 0a03 673f a7f6 0abe b1c7 3b3e
00000310: 550b 9e3d 95c5 9dbd 8cf6 d43a f866 04be
00000320: ae25 fabe 0548 a3be 3e77 b63e 948b aebe
00000330: 697b babe 6cc1 13bf fccd 0ebf 3b0a 03be
00000340: b3d1 d93c 4bbd 813d 49ff 1c3e 216f 463f
00000350: 8164 3dbd b4ba c3bd 5368 5f3e bae3 083f
00000360: 278a 103e dcf2 8c3e d292 bf3e 3d59 6a3d
00000370: 7334 50bf 71ff f13e 0086 09be fc89 c0be
00000380: 80bf 34bd 4ce5 ec3d 5ea4 203d 39ca 31bd
00000390: 760e 5c3e 9ee1 81bf e640 f13c 18db f63e
000003a0: c64a 10be ef4f c03e f991 563e 2aed 853e
000003b0: 8c4c ecbd acf4 9a3e afda 26bf 4966 003d
000003c0: b619 9c3e 8e5e a5be bf0f 9e3a 4780 e4bd
000003d0: fefa a3bc 91d7 8bbd 9931 1cbe ec41 1c3d
000003e0: 5b14 133c ab44 bd3d e345 b6bd 3390 10be
000003f0: 8148 0cbd 18f1 bbbd 01e6 9fbd 5373 57be

conv_block1.0.bias f4 [10]
0.56312245 0.40061226 0.50424814 0.0941474 0.32308987 -0.1783704 -0.2746086 0.019722674
0.158895 -0.22243617
00000000: cb28 103f 0d1d cd3e 6816 013f 5ad0 c03d
00000010: 096c a53e bba6 36be 8099 8cbe 7291 a13c
00000020: 5fb5 223e 4fc6 63be

conv_block1.2.weight f4 [10]
1.1396112 0.70724404 0.9122373 0.9033787 1.2808446 0.96108186 0.86736095 0.92702323
2.053165 0.9855682
00000000: c8de 913f f20d 353f 6288 693f d443 673f
00000010: b7f2 a33f 7609 763f 5e0b 5e3f 6551 6d3f
00000020: 0e67 0340 334e 7c3f

conv_block1.2.bias f4 [10]
-0.025287936 0.42039356 -0.02496208 0.13045925 0.28029886 0.046857525 0.037621044 0.015389706
0.59676933 0.22518846
00000000: a528 cfbc d33d d73e 477d ccbc 1c97 053e
00000010: 5583 8f3e aded 3f3d 8618 1a3d 1b25 7c3c
00000020: e0c5 183f ce97 663e

conv_block1.2.running_mean f4 [10]
0.57871103 1.3469658 0.59220034 0.2224061 0.2656945 6e-45 6e-45 0.3183722
0.17663102 6e-45
00000000: 6826 143f 6069 ac3f 719a 173f 6dbe 633e
00000010: 1c09 883e 0400 0000 0400 0000 ae01 a33e
00000020: c3de 343e 0400 0000

conv_block1.2.running_var f4 [10]
0.1467234 0.24552907 0.08784987 0.062079076 0.04981508 6e-45 6e-45 0.085185766
0.026082462 6e-45
00000000: a93e 163e f96b 7b3e a2ea b33d a146 7e3d
00000010: e60a 4c3d 0400 0000 0400 0000 e075 ae3d
00000020: e3aa d53c 0400 0000

conv_block1.3.weight f4 [10, 10, 3, 3]
-0.74938524 -0.109226644 0.958 -0.82225096 -0.11075145 0.75922716 -0.6520259 0.4094195
0.886768 -0.05881137 -0.018401742 0.104845375 -0.15665928 -0.14378794 0.0968377 0.11150829
0.08569353 0.27981266 0.20533705 -0.018634332 -0.08507888 0.16989575 -0.25533697 -0.30015552
0.12847327 0.037151497 -0.15132178 0.372123 0.20315544 -0.11129363 0.04249225 0.1350228
-0.5009916 -0.04617846 0.10105288 -0.54494625 -0.2784337 0.04043683 0.031190919 -0.5233669
0.29367882 0.2571883 -0.44566518 0.2003437 -0.21836342 0.024380181 0.021710476 0.022166975
0.016424835 0.081857495 0.21282183 -0.031449813 -0.14260778 -0.15286769 0.1710148 0.117822796
0.19358332 0.07457367 0.04381743 0.101770975 -0.008940439 -0.047292136 -0.0063265413 -0.025272397
-0.29880393 -0.34691465 0.3047532 -0.4528013 -0.080518916 0.5315336 0.027768929 0.2644551
-0.1384578 0.17519864 -0.46923113 0.10378769 0.62196845 -0.5180934 0.0770072 0.29614088
-0.5190916 -0.063789696 -0.16654274 -0.07352621 0.09881637 0.0585151 0.041436862 -0.64185923
-0.75069284 -0.5715751 -0.1927585 -0.16544619 -0.5067935 -0.2490631 -0.007213138 -0.15599878
0.18626948 -0.053375483 -0.19913666 -0.23634838 0.008409877 -0.028740993 -0.2268672 -0.013850778
0.061785936 -0.34763157 -0.24445784 -0.22292995 0.2582989 0.30953172 0.13255133 -0.2033643
0.022773676 -0.13287881 0.0023673123 -0.21426982 -0.50059533 0.34820384 0.021912063 -0.19848172
0.46730173 -0.09020172 0.040255353 0.2224195 -0.23622505 -0.174267 -0.005138883 -0.13561237
-0.3466482 0.43220598 -0.34750083 0.21784493 0.26778117 -0.62641937 0.40208915 0.002916301
-0.15623893 0.078880586 0.1417465 -0.13376965 0.13924061 0.0617009 -0.26311943 0.12697296
0.12064169 -0.095603116 -0.028884549 0.10821787 -0.04404047 0.13405746 0.10000546 -0.15907209
-0.024691302 -0.16216996 -0.0010995358 -0.33180907 -0.34918523 0.47763813 -0.41416222 -0.31331664
0.167653 -0.2998312 0.1151448 -0.50626886 0.15545863 0.563484 -1.0958809 0.46220213
0.22543165 -0.97089154 0.52724385 -0.09843761 -0.7776956 -0.05495432 0.36336207 -0.35203886
0.08329816 0.27693805 -0.50615627 -0.09618036 0.15268958 -0.21555725 -0.09376706 0.037779663
0.10001215 0.15992089 0.39988616 -0.015104259 0.15668269 0.9664382 1.0048978 1.1196172
0.010635757 0.07640334 0.20714131 -0.9424073 -1.0357511 -0.9844125 -0.0613754 -0.11879275
-0.18454562 0.23931123 0.20752369 0.14305429 0.41905603 0.34991753 0.14592022 -0.29307166
-0.32926244 -0.21713859 0.2858806 0.10153782 0.06865635 0.26779312 0.35478613 0.3953239
-0.24897854 0.20354454 -0.18127057 -0.07602855 -0.13761888 0.043973085 -0.17314973 0.13331105
0.34939978 -0.047284123 -0.16600533 -0.11494252 0.052166402 0.07200701 0.06986548 0.1954964
0.29251057 0.10690362 -0.054834586 -0.12785636 0.083554514 0.041675676 0.09562297 0.08015017
0.0030875125 0.15479843 0.095083915 0.49565703 0.12059894 0.11828842 0.33479312 0.0501419
0.15208834 0.48109278 0.2396736 0.6109322 -0.10769151 -0.17241341 -0.18822278 0.06798578
00000000: b6d7 3fbf 38b2 dfbd 7d3f 753f 0a7f 52bf
00000010: a8d1 e2bd b65c 423f 2beb 26bf 6f9f d13e
00000020: 3a03 633f 31e4 70bd 40bf 96bc 2cb9 d63d
00000030: 4a6b 20be 253d 13be d852 c63d 755e e43d
00000040: 1780 af3d 9b43 8f3e e043 523e 07a7 98bc
00000050: d63d aebd 27f9 2d3e 87bb 82be fcad 99be
00000060: 7f8e 033e 2b2c 183d 19f4 1abe e886 be3e
00000070: fb07 503e eaed e3bd 5b0c 2e3d 6b43 0a3e
00000080: fc40 00bf a025 3dbd d0f4 ce3d 9981 0bbf
00000090: dd8e 8ebe 17a1 253d 1984 ff3c 60fb 05bf
000000a0: 125d 963e 2fae 833e 3a2e e4be e626 4d3e
000000b0: a99a 5fbe f2b8 c73c 2bda b13c 8497 b53c
000000c0: 608d 863c e7a4 a73d f7ed 593e 85d1 00bd
000000d0: c607 12be 5989 1cbe 811e 2f3e 144d f13d
000000e0: b53a 463e 15ba 983d e879 333d 4d6d d03d
000000f0: eb7a 12bc 66b5 41bd e04e cfbb 0f08 cfbc
00000100: d4fc 98be cc9e b1be 9d08 9c3e 92d5 e7be
00000110: 1ae7 a4bd 9612 083f aa7b e33c a966 873e
00000120: e2c7 0dbe 4667 333e 103f f0be a48e d43d
00000130: 5339 1f3f c5a1 04bf f3b5 9d3d c79f 973e
00000140: 30e3 04bf 2ca4 82bd 2e8a 2abe e994 96bd
00000150: 3d60 ca3d 88ad 6f3d b3b9 293d e350 24bf
00000160: 682d 40bf bf52 12bf 7c62 45be ba6a 29be
00000170: 38bd 01bf 660a 7fbe 305c ecbb 25be 1fbe
00000180: 6dbd 3e3e 40a0 5abd 7bea 4bbe 4f05 72be
00000190: 95c9 093c 3b72 ebbc e04f 68be 60ee 62bc
000001a0: 4013 7d3d c4fc b1be 2853 7abe c047 64be
000001b0: c13f 843e f17a 9e3e 89bb 073e bb3e 50be
000001c0: dc8f ba3c 6211 08be e924 1b3b 8c69 5bbe
000001d0: 0427 00bf c647 b23e ed80 b33c cb3e 4bbe
000001e0: 2c42 ef3e aebb b8bd cce2 243d f0c1 633e
000001f0: fbe4 71be 0c73 32be 1364 a8bb f8dd 0abe
00000200: df7b b1be 1a4a dd3e a1eb b1be be12 5f3e
00000210: 9d1a 893e 055d 20bf a1de cd3e 691f 3f3b
00000220: 19fd 1fbe 258c a13d ff25 113e e9fa 08be
00000230: 1795 0e3e 15ba 7c3d 97b7 86be 3305 023e
00000240: fe12 f73d 91cb c3bd 4a9f ecbc 55a1 dd3d
00000250: c863 34bd 5c46 093e aacf cc3d cbe3 22be
00000260: 6a45 cabc e20f 26be 4d1e 90ba e1e2 a9be
00000270: 68c8 b2be fc8c f43e 120d d4be 0a6b a0be
00000280: 3aad 2b3e 7a83 99be 09d1 eb3d d69a 01bf
00000290: 8c30 1f3e 7d40 103f d345 8cbf c2a5 ec3e
000002a0: 8ed7 663e 598c 78bf 74f9 063f a899 c9bd
000002b0: 0f17 47bf c817 61bd 980a ba3e 703e b4be
000002c0: 3a98 aa3d d3ca 8d3e 7593 01bf 35fa c4bd
000002d0: a85a 1c3e 0abb 5cbe f208 c0bd d9be 1a3d
000002e0: 2cd3 cc3d 4dc2 233e e1bd cc3e db77 77bc
000002f0: 6d71 203e 7e68 773f 7ea0 803f 9e4f 8f3f
00000300: 9941 2e3c 5b79 9c3d da1c 543e 9b41 71bf
00000310: 7e93 84bf 7502 7cbf c564 7bbd 9d49 f3bd
00000320: 87f9 3cbe 010e 753e 1781 543e d37c 123e
00000330: 838e d63e 6428 b33e 1c6c 153e 7d0d 96be
00000340: 1695 a8be 9459 5ebe f15e 923e 10f3 cf3d
00000350: b39b 8c3d 2e1c 893e 87a6 b53e e567 ca3e
00000360: 3bf4 7ebe fb6d 503e fe9e 39be dbb4 9bbd
00000370: f7eb 0cbe 1f1d 343d 2a4e 31be b182 083e
00000380: 87e4 b23e ffac 41bd 4dfd 29be fc66 ebbd
00000390: 70ac 553d 6978 933d a215 8f3d 3530 483e
000003a0: f2c3 953e 49f0 da3d 3b9a 60bd c7ec 02be
000003b0: a11e ab3d 1db4 2a3d fad5 c33d c625 a43d
000003c0: dd57 4a3b 7b83 1e3e 5bbb c23d c2c6 fd3e
000003d0: 94fc f63d 3341 f23d 016a ab3e 9861 4d3d
000003e0: 0cbd 1b3e cb51 f63e ff6c 753e 0d66 1c3f
000003f0: 5e8d dcbd 248d 30be 79bd 40be 213c 8b3d

conv_block1.3.bias f4 [10]
-0.21368346 -0.39230514 0.1672876 -0.38335952 0.16665393 -0.4907969 -0.28960076 -0.10361866
-0.075968035 -0.09253316
00000000: d6cf 5abe 38dc c8be 714d 2b3e b347 c4be
00000010: 54a7 2a3e bb49 fbbe 8d46 94be 0536 d4bd
00000020: 2195 9bbd 0682 bdbd

conv_block1.5.weight f4 [10]
1.05786 1.1870854 1.146632 0.84632736 1.0424118 0.8711103 0.897351 0.9682845
0.93500715 1.1241431
00000000: f567 873f 6af2 973f d6c4 923f e9a8 583f
00000010: c06d 853f 1601 5f3f ccb8 653f 7ee1 773f
00000020: a15c 6f3f ece3 8f3f

conv_block1.5.bias f4 [10]
-0.10731969 -0.19262642 -0.06543895 -0.18432713 -0.37081972 0.046726357 -0.22781596 -0.5392021
-0.3337671 -0.5961201
00000000: 6dca dbbd dc3f 45be db04 86bd 40c0 3cbe
00000010: 15dc bdbe 2364 3f3d 9648 69be 2609 0abf
00000020: 85e3 aabe 549b 18bf

conv_block1.5.running_mean f4 [10]
1.2147014 1.2466244 1.3962604 0.6131714 0.8069252 1.3024157 0.80251205 0.604747
1.00041 0.95890343
00000000: 567b 9b3f 6391 9f3f a9b8 b23f cdf8 1c3f
00000010: a692 4e3f 8fb5 a63f 6e71 4d3f b3d0 1a3f
00000020: 6f0d 803f b27a 753f

conv_block1.5.running_var f4 [10]
9.619896 6.510948 4.2977915 2.4173536 3.3709092 3.6654282 3.6551242 2.3125854
4.3366756 4.220201
00000000: 18eb 1941 b059 d040 8287 8940 ecb5 1a40
00000010: fabc 5740 6096 6a40 8eed 6940 6601 1440
00000020: 0cc6 8a40 e30b 8740

conv_block2.0.weight f4 [10, 10, 3, 3]
-0.008757988 0.09521922 0.26362908 -0.17506473 -0.600042 -0.1107973 0.2104325 0.2897825
0.025553636 -0.5509521 -0.04368072 -0.21771224 -0.88891745 -0.30040437 -0.042338967 -0.53810626
-0.20783181 -0.15996557 0.08176776 0.1142669 0.19511755 -0.29276046 0.065637745 -0.08321403
-0.14817423 0.25298104 0.25377908 -0.1618472 0.021535719 0.50373805 -0.57146865 -0.5922686
0.16106729 0.06333622 -0.259091 0.095640875 0.2901115 0.31512636 -0.0005988964 -0.29406348
-0.27179646 0.6250313 -0.31531492 -0.518718 0.1931817 0.13631958 0.5450516 0.8048365
-0.38967016 0.14029154 0.24160445 -0.61630887 -0.1519327 -0.13237152 -0.5236064 0.023210075
0.53855294 -0.8780518 -0.08584711 0.2585534 -0.27597845 0.13312306 0.46153882 0.41389993
0.3178027 0.22225149 0.28769204 -0.67814857 -0.9008673 0.2552992 -0.45859542 -0.2150074
0.32177585 0.15558308 0.44583085 -0.24413924 -1.178599 -0.24585408 -0.570918 -0.85638154
-0.5327456 0.3993932 0.34766984 -0.09184533 -0.20912907 0.14494792 0.001169094 -0.43665028
0.029205563 0.34542292 0.07559807 0.25979966 0.24575321 -0.31999922 0.069507726 -0.019508237
-0.5546643 0.0988032 0.154319 0.25915018 0.27303857 0.5188955 -0.07612654 0.15862674
0.004691939 0.13036342 -0.109316334 0.45578897 -0.15818842 -0.2691141 -0.4166067 -0.20546353
-0.82117385 -0.62080425 0.9661646 0.66112286 0.54482484 -0.48933226 -0.20072836 -0.3921704
-0.07242479 -0.23938505 -0.82923293 0.2969616 0.58233505 -0.0252435 0.015904881 0.20069489
0.24723311 -0.039526414 0.00909913 0.28608933 0.17510018 0.15797684 -0.024712227 0.6672394
0.6194272 0.17442098 0.5121867 0.4285572 0.13375759 0.52814543 0.43240988 0.31100017
-0.2192791 -0.123325825 -0.032677054 -0.49720588 -0.54090613 -0.23018761 -0.24821462 -0.47611198
-0.40974864 -0.22059679 -0.14255874 -0.48618856 -0.031419758 0.03524866 -0.20732015 -0.44820225
-0.52674776 -0.24595919 -0.007541196 0.26188534 0.10444523 -0.03485267 0.2977898 0.22519538
-0.035865165 0.21934941 0.5290052 0.07913524 0.035938255 0.088069715 -0.062385328 -0.03524837
0.44800887 0.026773017 -0.41788182 0.23910348 0.3344055 0.3794396 -0.4692661 -0.33480895
0.31157333 -0.16494885 0.2523013 0.43208337 -0.05875543 0.7842221 0.09210375 0.08910892
0.42271167 0.07571004 0.39168948 0.45782378 0.16698253 -0.019456215 -0.19692165 -0.10120567
-0.3017661 -0.065483734 0.1054187 -0.07166505 0.019577863 0.20525114 -0.07468068 0.12603658
-0.036645833 -0.06496778 -0.1892549 0.10197793 -0.3272614 -0.051659763 -0.06582282 -0.029253261
0.12069218 -0.8233089 0.33338365 -0.27621806 -0.49166748 -0.20269036 -0.3915919 -0.28641272
0.051304832 0.3158767 0.008042495 0.077697046 0.5254946 -0.00012318978 0.002464394 0.15632683
-0.22867838 -0.13562362 0.10547007 -0.09606868 -0.84587026 0.15083674 -0.10696953 -0.5330722
-0.10218674 -0.2189548 -0.31298637 0.37096983 -0.15681674 -0.062358618 -0.33424997 -0.254176
-0.4613582 -0.38099474 -0.10193434 0.024366453 -0.4723617 -1.0499027 -0.20291139 -0.8277518
00000000: aa7d 0fbc 4b02 c33d 64fa 863e 2b44 33be
00000010: 5a9c 19bf b2e9 e2bd 9e7b 573e 5f5e 943e
00000020: dc55 d13c 320b 0dbf 8eea 32bd f5ef 5ebe
00000030: 1890 63bf 9ace 99be a06b 2dbd 55c1 09bf
00000040: ddd1 54be 04ce 23be db75 a73d c404 ea3d
00000050: e5cc 473e b3e4 95be 156d 863d 1e6c aabd
00000060: fcba 17be bb86 813e 55ef 813e 46bb 25be
00000070: ad6b b03c faf4 003f c54b 12bf ea9e 17bf
00000080: d3ee 243e 6cb6 813d 93a7 84be 5ddf c33d
00000090: 7f89 943e 3e58 a13e 42ff 1cba 7d8f 96be
000000a0: e828 8bbe 0d02 203f f570 a1be b4ca 04bf
000000b0: 6cd1 453e 5c97 0b3e 8088 0b3f c409 4e3f
000000c0: d982 c7be 96a8 0f3e 2867 773e 6bc6 1dbf
000000d0: 3f94 1bbe 668c 07be 120b 06bf 0e23 be3c
000000e0: 9bde 093f 01c8 60bf 9cd0 afbd 1c61 843e
000000f0: 0c4d 8dbe 6951 083e d14e ec3e b1ea d33e
00000100: 09b7 a23e e595 633e 5f4c 933e 259b 2dbf
00000110: 3d9f 66bf 94b6 823e 05cd eabe e62a 5cbe
00000120: cebf a43e 2c51 1f3e f143 e43e a3ff 79be
00000130: 55dc 96bf 2cc1 7bbe af27 12bf d23b 5bbf
00000140: 0462 08bf 447d cc3e c801 b23e 6819 bcbd
00000150: ee25 56be 3a6d 143e 493c 993a a090 dfbe
00000160: 8140 ef3c 46db b03e 29d3 9a3d 7604 853e
00000170: bba6 7b3e f0d6 a3be 115a 8e3d bdcf 9fbc
00000180: 7bfe 0dbf 5559 ca3d cd05 1e3e 55af 843e
00000190: b6cb 8b3e 56d6 043f 3be8 9bbd 0c6f 223e
000001a0: d6be 993b fd7d 053e 3ee1 dfbd 2c5d e93e
000001b0: 25fc 21be 53c9 89be 794d d5be 0865 52be
000001c0: 7338 52bf 07ed 1ebf 9056 773f 593f 293f
000001d0: a479 0b3f c289 fabe bc8b 4dbe 8fca c8be
000001e0: 7353 94bd 5b21 75be 9c48 54bf 5a0b 983e
000001f0: e913 153f 75cb cebc f44a 823c f682 4d3e
00000200: ad2a 7d3e 73e6 21bd 8414 153c 4d7a 923e
00000210: 764d 333e aec4 213e 4c71 cabc 34d0 2a3f
00000220: c892 1e3f 6a9b 323e ab1e 033f d96b db3e
00000230: c0f7 083e 8a34 073f d464 dd3e 6a3b 9f3e
00000240: b38a 60be 4092 fcbd 60d8 05bd c591 febe
00000250: d378 0abf 4db6 6bbe f92b 7ebe f3c4 f3be
00000260: 93ca d1be 20e4 61be ebfa 11be b5ed f8be
00000270: 01b2 00bd e660 103d bc4b 54be c47a e5be
00000280: f1d8 06bf badc 7bbe 231c f7bb d615 863e
00000290: 61e7 d53d acc1 0ebd e877 983e 9e99 663e
000002a0: 5ae7 12bd 229d 603e e36c 073f a811 a23d
000002b0: fe33 133d e55d b43d c287 7fbd 9860 10bd
000002c0: 6b61 e53e 1653 db3c 9bf4 d5be 8bd7 743e
000002d0: 3337 ab3e e845 c23e a543 f0be 146c abbe
000002e0: 8a86 9f3e 5ae8 28be a32d 813e 083a dd3e
000002f0: 89a9 70bd c8c2 483f e4a0 bc3d bd7e b63d
00000300: aa6d d83e de0d 9b3d 868b c83e e167 ea3e
00000310: 78fd 2a3e a462 9fbc d4a5 49be eb44 cfbd
00000320: 1681 9abe 561c 86bd c2e5 d73d 20c5 92bd
00000330: c161 a03c 5b2d 523e 2ff2 98bd bc0f 013e
00000340: f119 16bd d40d 85bd 09cc 41be ced9 d03d
00000350: ce8e a7be 3099 53bd 1dce 86bd 89a4 efbc
00000360: 762d f73d 5fc4 52bf 43b1 aa3e 746c 8dbe
00000370: d7bb fbbe 108e 4fbe bc7e c8be b0a4 92be
00000380: 0425 523d 97ba a13e abc4 033c a11f 9f3d
00000390: d086 063f 812c 01b9 ac81 213b 2414 203e
000003a0: aa2a 6abe ebe0 0abe b100 d83d a8bf c4bd
000003b0: f48a 58bf f274 1a3e d712 dbbd 6b77 08bf
000003c0: 4847 d1bd b035 60be c03f a0be c2ef bd3e
000003d0: 9194 20be c06b 7fbd d022 abbe 5b23 82be
000003e0: 2437 ecbe be11 c3be f4c2 d0bd 289c c73c
000003f0: 65d9 f1be 3663 86bf 01c8 4fbe 8be7 53bf

conv_block2.0.bias f4 [10]
-0.17994727 1.6833283 1.9584194 -0.53542954 0.4560058 0.11146316 0.47998664 -0.52602243
1.9770269 0.8825589
00000000: 1944 38be 4d77 d73f 7dad fa3f e911 09bf
00000010: 9879 e93e cc46 e43d cfc0 f53e 68a9 06bf
00000020: 380f fd3f 61ef 613f

conv_block2.2.weight f4 [10]
1.0771656 0.9430303 1.1274538 0.9991757 1.0132822 0.9897725 0.90126944 1.1324699
1.291875 0.9606024
00000000: 90e0 893f 6f6a 713f 6850 903f fbc9 7f3f
00000010: 3bb3 813f bb61 7d3f 98b9 663f c6f4 903f
00000020: 295c a53f 0aea 753f

conv_block2.2.bias f4 [10]
0.45432633 0.3133201 -0.40041897 -0.1237949 0.4595093 -0.27756974 -0.33418712 0.18393242
0.10936958 0.22141087
00000000: 769d e83e 7e6b a03e b703 cdbe 2e88 fdbd
00000010: ce44 eb3e 9f1d 8ebe 931a abbe c858 3c3e
00000020: 29fd df3d 88b9 623e

conv_block2.2.running_mean f4 [10]
2.1497304 4.820365 3.8766935 1.922559 3.5587287 2.8077254 2.7331672 1.6115681
2.8056166 2.2095318
00000000: 2f95 0940 6e40 9a40 bf1b 7840 6a16 f63f
00000010: 36c2 6340 c6b1 3340 36ec 2e40 dd47 ce3f
00000020: 398f 3340 f868 0d40

conv_block2.2.running_var f4 [10]
12.3572445 24.2048 20.513613 10.967597 31.636732 17.784708 13.219388 8.797372
13.672523 12.319065
00000000: 46b7 4541 6ea3 c141 e11b a441 477b 2f41
00000010: 0718 fd41 1547 8e41 9d82 5341 09c2 0c41
00000020: a7c2 5a41 e41a 4541

conv_block2.3.weight f4 [10, 10, 3, 3]
-0.26993135 -0.24385443 0.025160955 -0.3959154 -0.5092768 0.056195237 0.035962913 -0.4504803
0.10630773 -0.49635673 -0.48010105 -0.26582316 -0.8020574 -0.96654594 -0.5437636 -0.23772177
-0.74050695 -0.073149726 0.10564233 -0.14475124 -0.08053872 0.18330316 -0.14244464 -0.20507725
-0.182552 -0.54057866 -0.27092546 -0.13367285 -0.46426982 -0.7138341 0.27563578 -0.20508273
-0.17904785 0.3491791 -0.293317 -0.27057797 0.28311306 0.16941482 -0.016824706 0.14871708
0.37420014 0.079505615 0.01223324 0.062483367 -0.047988433 -0.4583204 -0.92906624 -0.0708522
-0.8179583 -1.4377053 -0.0680065 -0.42263252 -0.89664114 -0.2812853 0.31006867 0.2964313
0.3127513 0.4348549 0.21051596 0.12684049 0.3937921 0.37610382 0.24688059 -0.187655
-0.10242751 0.050108686 -0.33832845 -0.37360537 -0.08448206 -0.1254421 0.00729531 0.009426519
0.12635832 -0.30632883 0.24535969 -0.017477732 -0.120429195 0.08849329 0.103382945 -0.42630368
-0.22997953 0.22763337 -0.43723506 -0.1489195 -0.14984493 -0.47969174 -0.10563869 -0.10059277
-0.47022957 0.3277835 0.30703768 0.042205457 0.35472274 0.16573282 0.1343711 0.37819865
0.055469096 0.16690557 0.1472539 -0.31183058 -0.42059565 0.12068228 -0.92055887 -1.1702781
-0.7400697 -0.48920432 -0.4221824 -0.2611552 -0.016502187 -0.5635525 -0.16260704 -0.27979237
-0.15159996 -0.13132735 0.2658721 0.52229524 0.38624904 -0.18212523 -0.06260176 0.016181868
-0.18132493 -0.019501898 -0.0034375293 -0.48772705 -0.2503776 -0.1873275 -0.07838631 -0.24531297
0.0077703632 0.015025977 -0.07907067 0.12990096 -0.038659617 -0.46123987 -0.2736975 0.02091357
-0.10054859 0.095752 0.028178316 -0.37283602 -0.30443206 -0.028745512 -0.3831774 -0.05387237
0.016465666 -0.5898546 -0.24454308 -0.64414036 -0.8534852 -0.66134274 -0.17257957 -0.40137005
-0.39500526 -0.07150484 0.083876655 0.06626166 -1.121278 -1.0659493 -0.6086043 -0.27489632
-0.09054635 0.19867028 -0.28505942 -0.08068521 -0.035687633 -0.08045964 -0.03775874 0.066185065
-0.14101285 -0.26025602 -0.11221442 -0.22190772 -0.385216 -0.38379768 -0.21361776 -0.35295942
-0.43501493 -0.24297938 -0.31879547 -0.7170893 -0.45200858 -0.29589018 -0.77896005 -0.3384503
-0.49857312 -0.11347106 -0.28167844 -0.25738117 0.37087703 -0.008460937 -0.20661597 -0.14863625
0.09805803 -0.37028554 -0.20785826 -0.286974 -0.9126026 -0.3161599 0.11507313 0.3853049
0.23388252 -0.050429296 -0.22368002 -0.60926425 -0.5340137 -0.30984253 0.37537327 0.35649252
0.37188977 0.43584043 0.3554512 0.25039658 0.098610386 -0.2088753 -0.2761389 -0.35487947
-0.45267448 -0.18703185 -0.004685602 -0.08420711 0.5308764 0.74058044 -0.20084707 0.36303493
0.184374 -0.0036582756 0.15040487 0.2485184 0.18452826 0.5387593 0.15385999 0.47196764
0.09525863 -0.36952898 0.5299244 0.13426146 -0.47064742 0.06919578 -0.2753512 -0.26171908
-0.12456577 -0.051407106 0.15913513 0.3386205 0.018138591 -0.17317632 0.13562706 -0.43390262
-0.47243673 -0.524757 -0.46422288 -0.048984207 0.27451319 0.22613905 -0.34615484 0.35145697
00000000: 7134 8abe fab4 79be 591e ce3c 6cb5 cabe
00000010: f75f 02bf fa2c 663d d94d 133d 5ba5 e6be
00000020: deb7 d93d 7822 febe cecf f5be f919 88be
00000030: a253 4dbf 8e6f 77bf 1734 0bbf 566d 73be
00000040: dd91 3dbf 86cf 95bd 025b d83d ab39 14be
00000050: 7cf1 a4bd d3b3 3b3e 02dd 11be c5ff 51be
00000060: e9ee 3abe 5d63 0abf beb6 8abe 89e1 08be
00000070: c6b4 edbe d5bd 36bf 2220 8d3e 3501 52be
00000080: 5258 37be 9ac7 b23e a52d 96be 3289 8abe
00000090: 32f4 903e 147b 2d3e f7d3 89bc 4a49 183e
000000a0: 2997 bf3e d7d3 a23d ed6d 483c 8fee 7f3d
000000b0: 858f 44bd f9a8 eabe 49d7 6dbf f51a 91bd
000000c0: b765 51bf ba06 b8bf fe46 8bbd 4a63 d8be
000000d0: 468a 65bf a004 90be 52c1 9e3e d8c5 973e
000000e0: f020 a03e 4da5 de3e 7f91 573e 79e2 013e
000000f0: 1e9f c93e ae90 c03e 44ce 7c3e a228 40be
00000100: 84c5 d1bd c43e 4d3d 6339 adbe 3449 bfbe
00000110: ee04 adbd e573 00be 7f0d ef3b b071 1a3c
00000120: 1364 013e 22d7 9cbe 923f 7b3e 762d 8fbc
00000130: 95a3 f6bd f83b b53d 70ba d33d 7a44 dabe
00000140: c17f 6bbe b918 693e 46dd dfbe 5a7e 18be
00000150: f370 19be 289a f5be 1959 d8bd 9503 cebd
00000160: eec1 f0be 3dd3 a73e 0b34 9d3e a1df 2c3d
00000170: 389e b53e ddb5 293e 9498 093e 41a3 c13e
00000180: 9033 633d 4be9 2a3e bac9 163e 42a8 9fbe
00000190: 5058 d7be 4528 f73d bfa9 6bbf accb 95bf
000001a0: 3575 3dbf fd78 fabe 4b28 d8be 22b6 85be
000001b0: 982f 87bc fa44 10bf 7682 26be f240 8fbe
000001c0: 053d 1bbe ad7a 06be 6320 883e 24b5 053f
000001d0: 6fc2 c53e 097f 3abe 5a35 80bd d68f 843c
000001e0: 3ead 39be 72c2 9fbc 2c48 61bb 5cb7 f9be
000001f0: 7e31 80be c8d2 3fbe 0089 a0bd 5333 7bbe
00000200: 889e fe3b 842f 763c ceef a1bd c204 053e
00000210: 8c59 1ebd a227 ecbe 1422 8cbe ef52 ab3c
00000220: 6bec cdbd a019 c43d 36d6 e63c 5de4 bebe
00000230: 85de 9bbe b57b ebbc d42f c4be 46a9 5cbd
00000240: 01e3 863c b600 17bf 8069 7abe 62e6 24bf
00000250: 027e 5abf c24d 29bf b3b8 30be 6080 cdbe
00000260: 213e cabe 2171 92bd 86c7 ab3d 31b4 873d
00000270: 0a86 8fbf 0771 88bf 7ecd 1bbf 36bf 8cbe
00000280: 5d70 b9bd 3970 4b3e 4ff3 91be 4a3e a5bd
00000290: 322d 12bd 06c8 a4bd e9a8 1abd 098c 873d
000002a0: ac65 10be 4740 85be add0 e5bd c73b 63be
000002b0: 083b c5be 2181 c4be 9dbe 5abe 19b7 b4be
000002c0: 47ba debe 96cf 78be 2939 a3be 2a93 37bf
000002d0: ab6d e7be eb7e 97be ed69 47bf 5c49 adbe
000002e0: fa44 ffbe 8463 e8bd 2838 90be 77c7 83be
000002f0: 98e3 bd3e be9f 0abc 2393 53be 1a34 18be
00000300: a6d2 c83d 1196 bdbe ccd8 54be 42ee 92be
00000310: 53a0 69bf b6df a1be 76ab eb3d af46 c53e
00000320: e67e 6f3e f38e 4ebd 600c 65be bef8 1bbf
00000330: 1fb5 08bf aea3 9ebe ed30 c03e 3086 b63e
00000340: 5668 be3e 7a26 df3e b3fd b53e fb33 803e
00000350: 3ef4 c93d 68e3 55be 1462 8dbe c3b2 b5be
00000360: f3c4 e7be 4785 3fbe ae89 99bb c774 acbd
00000370: 84e7 073f ae96 3d3f dbaa 4dbe b7df b93e
00000380: 8acc 3c3e aebf 6fbb bc03 1a3e 9c7b 7e3e
00000390: faf4 3c3e 21ec 093f 798d 1d3e bea5 f13e
000003a0: f516 c33d e732 bdbe 20a9 073f d67b 093e
000003b0: b3f8 f0be 84b6 8d3d d5fa 8cbe 0b00 86be
000003c0: 571c ffbd 4290 52bd 52f4 223e ab5f ad3e
000003d0: 6297 943c 2255 31be d2e1 0a3e 7c28 debe
000003e0: 3ae3 f1be 7a56 06bf 9fae edbe aaa3 48bd
000003f0: fe8c 8c3e ff90 673e 353b b1be 2bf2 b33e

conv_block2.3.bias f4 [10]
1.1697038 0.8347302 0.9239706 0.60549587 1.1643095 0.70764494 0.3343756 0.67020065
0.03743361 0.8644337
00000000: dbb8 953f e1b0 553f 5689 6c3f c701 1b3f
00000010: 1808 953f 3828 353f 4733 ab3e 4592 2b3f
00000020: fc53 193d 874b 5d3f

conv_block2.5.weight f4 [10]
0.12608054 0.12649874 0.0999156 0.09397628 0.12589446 0.10508934 0.10993621 0.10659872
0.09456732 0.14011797
00000000: 421b 013e e388 013e 8da0 cc3d a376 c03d
00000010: 7aea 003e 1439 d73d 3c26 e13d 6e50 da3d
00000020: 83ac c13d 167b 0f3e

conv_block2.5.bias f4 [10]
-0.037976764 -0.066125125 -0.055723965 -0.05112936 -0.06719313 -0.062654965 -0.037161127 -0.030753706
-0.040429596 -0.07644809
00000000: 868d 1bbd 9c6c 87bd d03e 64bd 056d 51bd
00000010: 8d9c 89bd 3f51 80bd 4436 18bd 32ef fbbc
00000020: 8199 25bd d190 9cbd

conv_block2.5.running_mean f4 [10]
2.4317052 2.156559 1.5889503 1.4240224 4.8710775 2.0556474 1.3918393 1.8643322
0.72855437 1.6783799
00000000: 0fa1 1b40 1005 0a40 b962 cb3f 5e46 b63f
00000010: dedf 9b40 ba8f 0340 ca27 b23f 70a2 ee3f
00000020: 8a82 3a3f 27d5 d63f

conv_block2.5.running_var f4 [10]
9.40455 7.5530734 6.9359593 5.102843 16.973028 7.4294186 6.4367914 7.056965
3.0923584 6.870961
00000000: 0979 1641 c7b2 f140 61f3 dd40 7d4a a340
00000010: c3c8 8741 ccbd ed40 32fa cd40 a8d2 e140
00000020: 33e9 4540 eade db40

classifier.1.weight f4 [10, 640]
0.17525184 -0.44382393 -0.17639108 -0.32928887 -0.37325773 -0.27638945 -0.22897756 -0.5311561
0.019674966 -0.3210425 -0.2973418 -0.3555871 -0.32798982 -0.10817658 -0.25068885 -0.3310432
0.053118963 -0.42202222 -0.55383486 -0.38571528 -0.15578702 -0.29277474 -0.24083133 -0.047260232
0.16274658 -0.28741667 -0.29981205 -0.4963083 -0.5540534 -0.28846884 -0.13420965 -0.20308605
-0.11813451 -0.06343158 -0.6114131 -0.7770638 -0.5588793 -0.307524 -0.21674205 -0.2806962
0.10236606 -0.27298233 -0.31985438 -0.31475177 -0.21364251 -0.062779814 -0.33882803 -0.2423003
0.08601369 -0.16985644 -0.192519 -0.1613561 -0.25390723 -0.17393425 -0.3985095 -0.14895174
0.375858 -0.097630635 0.2522157 0.046438463 -0.012015537 -0.028687406 0.018750556 0.27771515
-0.30420592 -0.24150628 0.020176176 0.29674694 0.0836754 0.022106985 -0.24877249 0.0046295235
-0.11877145 0.017921265 -0.05719995 -0.116486736 -0.21557723 -0.21649837 -0.07315908 -0.10623865
-0.14901532 -0.033541054 -0.30403128 -0.3120121 -0.23824747 -0.47874656 -0.08198347 -0.11252224
-0.10396192 -0.028705508 -0.43208036 -0.43979794 -0.5648765 -0.43503445 -0.21450733 -0.1795083
-0.42936087 -0.41041976 -0.6010673 -0.31533235 -0.4392276 -0.44537458 -0.41984352 -0.41883844
-0.40908566 -0.47932112 -0.36456272 -0.26558867 -0.3531833 -0.50902987 -0.49973333 -0.20286646
-0.14379196 -0.42180303 -0.41172245 -0.19423507 -0.2143068 -0.09703207 -0.23790109 -0.20506237
-0.27984065 -0.3074201 -0.27746874 -0.2315541 -0.1349171 0.008233892 -0.0828917 -0.36927462
-0.8441521 -0.61491954 -0.49658516 -0.32903442 -0.15833391 -0.37758645 -0.3144922 -0.19602142
-0.40625963 -0.3857227 -0.031437833 0.048391134 0.21360928 0.13786279 0.24419175 -0.14935274
-0.100251235 -0.3853324 -0.3076818 -0.06946697 0.06376915 0.2590332 0.51291287 0.00055110897
-0.13993558 0.16956477 0.2086091 -0.05910306 0.026232395 0.3490774 0.66915596 0.40177873
0.09489309 0.2488869 0.15363115 0.12988469 -0.06855912 -0.1998724 0.25617105 0.46037385
0.0992509 0.1026736 0.053146914 0.081429 -0.26829705 -0.37094888 -0.39384174 -0.24236478
0.20575248 0.24534452 0.08313638 0.023549423 -0.22299153 -0.2744479 -0.53768146 0.07135616
0.17787594 0.16113515 -0.101013005 -0.21082568 -0.13396521 -0.5128024 -0.5760476 0.43670943
-0.014934292 -0.060143385 -0.18989788 -0.06993521 -0.27865538 0.24357235 -0.011449331 0.00560803
0.018928533 0.02087432 -0.023279937 -0.18897246 -0.25005275 0.11185015 0.2425853 0.16380404
-0.046414994 -0.095879816 0.07215281 -0.04246269 -0.036669325 0.33141994 0.6413403 0.3012229
-0.30702904 -0.40706423 0.0037417852 0.13015787 0.13468222 0.3303896 0.27704576 -0.22539742
-0.08546642 -0.19056267 0.024219437 0.2451498 0.11595417 0.12067212 0.053396188 -0.08677225
-0.044265337 -0.14320439 0.05743277 0.1573429 -0.0052259383 0.098011695 0.040848907 -0.08616221
0.022229677 0.21531549 0.27046677 0.1501113 0.0210434 -0.035252918 -0.41068837 -0.31969553
-0.21884896 0.10617004 -0.116454646 0.0030895204 -0.25537938 -0.17533945 -0.5001976 -0.016042843
00000000: 3875 333e e43c e3be dd9f 34be 8d98 a8be
00000010: a31b bfbe eb82 8dbe 1879 6abe d9f9 07bf
00000020: 652d a13c af5f a4be 2f3d 98be 830f b6be
00000030: 48ee a7be af8b ddbd 4a5a 80be 7f7e a9be
00000040: 4593 593d 4c13 d8be 1fc8 0dbf 797c c5be
00000050: a286 1fbe 92e6 95be 7d9c 76be f293 41bd
00000060: 0aa7 263e 4728 93be f780 99be 1f1c febe
00000070: 72d6 0dbf 30b2 93be 416e 09be caf5 4fbe
00000080: 82f0 f1bd 6be8 81bd 9285 1cbf a7ed 46bf
00000090: b712 0fbf c973 9dbe a1f1 5dbe 6ab7 8fbe
000000a0: 4ca5 d13d 57c4 8bbe f4c3 a3be 2527 a1be
000000b0: 1ac5 5abe b492 80bd de7a adbe 921d 78be
000000c0: f227 b03d d9ee 2dbe b323 45be 893a 25be
000000d0: 2100 82be d21b 32be 7009 ccbe ce86 18be
000000e0: 7670 c03e 92f2 c7bd 6b22 813e 4236 3e3d
000000f0: d1dc 44bc da01 ebbc c49a 993c ae30 8e3e
00000100: e1c0 9bbe 6c4d 77be 8248 a53c 37ef 973e
00000110: 025e ab3d b519 b53c 37be 7ebe 42b3 973b
00000120: 723e f3bd 9ecf 923c 7f4a 6abd 9990 eebd
00000130: 47c0 5cbe c0b1 5dbe 6ed4 95bd a693 d9bd
00000140: 7997 18be 5862 09bd fda9 9bbe 0dc0 9fbe
00000150: 25f7 73be 451e f5be f3e6 a7bd 0f72 e6bd
00000160: fde9 d4bd d027 ebbc a339 ddbe 322d e1be
00000170: bf9b 10bf d6bc debe cfa7 5bbe 06d1 37be
00000180: 30d5 dbbe 8a22 d2be 8cdf 19bf 3e73 a1be
00000190: 71e2 e0be 2308 e4be bbf5 d6be fe71 d6be
000001a0: ad73 d1be 9469 f5be f7a7 babe 3dfb 87be
000001b0: 71d4 b4be c84f 02bf 0cdd ffbe 3abc 4fbe
000001c0: 333e 13be 91f6 d7be 49cd d2be 8fe5 46be
000001d0: 3e73 5bbe c0b8 c6bd 589c 73be dffb 51be
000001e0: 4647 8fbe 2b66 9dbe 6210 8ebe 851c 6dbe
000001f0: b527 0abe 72e7 063c 20c3 a9bd 9011 bdbe
00000200: 5a1a 58bf 5e6b 1dbf 6940 febe 3377 a8be
00000210: 4922 22be 0353 c1be 1f05 a1be d7b9 48be
00000220: 4301 d0be 727d c5be f5c4 00bd c835 463d
00000230: 64bc 5a3e e72b 0d3e 670d 7a3e edef 18be
00000240: 8550 cdbd 4a4a c5be 7888 9dbe b344 8ebd
00000250: 6699 823d 00a0 843e 424e 033f 4c78 103a
00000260: 464b 0fbe 63a2 2d3e a09d 553e 0d16 72bd
00000270: 52e5 d63c 46ba b23e ce4d 2b3f f1b5 cd3e
00000280: 4f57 c23d 35dc 7e3e 7c51 1d3e 7e00 053e
00000290: b968 8cbd 5aab 4cbe da28 833e 1fb6 eb3e
000002a0: 0e44 cb3d 8946 d23d 94b0 593d 3fc4 a63d
000002b0: 3b5e 89be 03ed bdbe a0a5 c9be 792e 78be
000002c0: c7b0 523e 983b 7b3e 6843 aa3d b8ea c03c
000002d0: e457 64be 6f84 8cbe 7ea5 09bf 2e23 923d
000002e0: 1c25 363e 9d00 253e e8df cebd b0e2 57be
000002f0: 2d2e 09be 0547 03bf db77 13bf 6198 df3e
00000300: f6ae 74bc e958 76bd 9774 42be 313a 8fbd
00000310: ebab 8ebe 086b 793e fa95 3bbc 91c3 b73b
00000320: 0310 9b3c 9f00 ab3c 91b5 bebc ff81 41be
00000330: ea06 80be b111 e53d 4868 783e 3fbc 273e
00000340: a61d 3ebd a35c c4bd dac4 933d 5ced 2dbd
00000350: 9332 16bd e0af a93e e12e 243f e339 9a3e
00000360: e932 9dbe b96a d0be bd38 753b 1b48 053e
00000370: 23ea 093e d328 a93e f1d8 8d3e 95ce 66be
00000380: 0509 afbd dc22 43be d767 c63c 8d08 7b3e
00000390: 6179 ed3d f222 f73d f6b5 5a3d a6b5 b1bd
000003a0: 924f 35bd 2ca4 12be a03e 6b3d 7f1e 213e
000003b0: 593e abbb 5bba c83d 2f51 273d d075 b0bd
000003c0: 031b b63c aa7b 5c3e 9f7a 8a3e c7b6 193e
000003d0: 3563 ac3c 5d65 10bd bf45 d2be 22af a3be
000003e0: f119 60be ae6f d93d c67f eebd 8d79 4a3b
000003f0: 16c1 82be 2f8c 33be f30c 00bf 486c 83bc

classifier.1.bias f4 [10]
0.042192582 -0.69307065 0.39943987 0.9447945 0.477893 -0.32553774 -0.31432557 -0.2255562
-0.5972075 -0.21075879
00000000: 21d2 2c3d 146d 31bf 6283 cc3e 0dde 713f
00000010: 64ae f43e e2ac a6be 48ef a0be 34f8 66be
00000020: 97e2 18bf 27d1 57be
