Task1/cifar_net.pth (torch, 251231 bytes, 10 tensors)

conv1.weight f4 [6, 3, 5, 5]
00000000: b9d6 e6bd d7a8 ca3e 1f73 243f 7814 103f
00000010: bb46 d53e b39b 7dbb 5290 143f adcd da3e
00000020: a3ce 5ebe f532 7e3e 569e 503e ae3d 173f
00000030: 7963 98bd a823 2fbf e131 4c3e 7ab8 7d3e
00000040: 8922 fd3c 626e efbe 7884 c9be 68a9 7c3e
00000050: a1f9 6bbe 8d2a dfbe 2279 cbbe 5db4 60be
00000060: 9aeb 21bd 70bc 4ebe 75d1 33be 3f7a 20bf
00000070: bc45 60bf fb07 2dbf 60c0 803e 2206 bf3e
00000080: df75 97be 945c 80bf 7ab3 9abe eb7d a13e
00000090: 6111 d63e cee7 fbbe 3be8 72bf 2d49 7e3d
000000a0: c47b 143f ec52 f9bd e4bd 33bf 49c6 0abf
000000b0: f85f c83e 5476 ce3e 1fb9 cabd 83a8 90be
000000c0: 5e08 f73d e818 a93e 53f8 82be f173 23bc
000000d0: f7cd 533e a606 b43a a897 f43b a74a c8bd
000000e0: 2b7e 8a3e 998a 963e e6d4 71be 8133 bd3d
000000f0: e551 433e 6fc7 ac3e f06b a3be 6401 09bf
00000100: 5299 af3e 0a41 b83d cd64 bebd ead0 12bf
00000110: d9cb 89be b234 083f 0fa7 e83d 0ed0 65be
00000120: 3650 5ebe 591c ab3e 293a d53e 8ff3 5a3d
00000130: a1be 5e3e 99ba 303d 3e38 e3bd 6b65 71be
00000140: dd2c 1cbc f171 1abe 76dc a63d f447 873e
00000150: 9bce fdbe 2a43 723e 7d30 463c 5dbd 88bf
00000160: 46e9 fe3e 92a6 cd3e 3c73 2e3d ebf6 b13f
00000170: ac2b 8cbf 789c b4bf 482b 3b3f 3425 02bf
00000180: b80c 963f cd24 063f 0f0a 87bf fbd9 06be
00000190: 2a09 8ebe fcef 6b3d 1c8d 93bd dc25 053e
000001a0: e178 0a3f 1826 52be 1c59 80be 0d4b a5bd
000001b0: 34d7 a93e 07d6 093e 3911 47bb e2ec b4bc
000001c0: ea72 8abf a879 cc3e 6f5d 763f 5e64 88be
000001d0: 343c ad3f 7129 91bf 2f22 a9bf aac8 903f
000001e0: a53f 75bf 0e43 853f b2da 173f 5781 77bf
000001f0: 1bb6 7c3e 09ba 9fbe 78ec 843d 7737 4ebd
00000200: ccd2 58be 0855 88bd 19df 9e3d ab3f 0abd
00000210: f1bb 893c 0d57 d83e cef9 f6be 5d54 483d
00000220: 008a 6b3e 74bb 70bf aae6 a23e 27b4 c13e
00000230: 1df7 2bbe aca9 af3f 13e5 7ebf 53f7 abbf
00000240: 18db 2c3f 0fe2 1bbf 1832 963f 0076 4b3f
00000250: f581 65bf dabb ff3d 4e85 213e a6e7 903e
00000260: 6e4a 213e d902 e5bc d4ab 503e e323 4fbc
00000270: a95f ccbc 1d90 6abe 9dd3 e63d 8b80 af3e
00000280: 888f f7b9 327e 45be 63fb 8e3d 881b 9a3e
00000290: 4c0f 943e 67ef 77bc 546c ecbd 15a2 0e3e
000002a0: c98c 613d 43ab 153e af8e 88bd 81a8 84bd
000002b0: d472 a0bd 2800 59be 504e 16be 4a83 9c3d
000002c0: f14a 8f3c 689b 05be 0ad8 7fbe cce0 803d
000002d0: 7d9b dfbd b751 8fbe 1706 b4be 2965 7abb
000002e0: 6eaf 463e 69cd b3ba 5a19 e5be fe09 39be
000002f0: 0455 883e f9eb a93e cff3 36be 0226 a6be
00000300: d245 d5bd 1d40 94bd 586b 873d f14f a83c
00000310: baa1 40be da37 94bd baa9 51be 2dde e0bd
00000320: 4ed7 abbe 877b dfbe 44d2 b4bd e46c c73d
00000330: a4c9 f33e a4e9 e8be ffe2 37bf 67f0 bebe
00000340: 3dee b53e c4da 4b3f 0b36 febe a6e1 08bf
00000350: 33aa 3abc 867a f03e c635 423f 862e b5be
00000360: adb2 4fbe e819 433e f872 ef3e fb10 103f
00000370: c665 ae3d a153 963d 2801 b53e 71c9 9f3e
00000380: 9b05 e83e 4102 d03e 68e9 d73c fd07 dfbe
00000390: 5217 99be 1ff2 26be 4ee4 a43e 3c3f 893f
000003a0: 6544 9f3f a193 8b3f a405 083f 2913 edbe
000003b0: c735 a4be e02b c5be 6c85 623d 294b e2bd
000003c0: d58b 53bc 7909 fbbd cc46 28bf e2ae 04bf
000003d0: 2b36 763e 21ef f6be 309f 1cbe f6e5 80bc
000003e0: 7d3f e2bd 958a babe 7985 05bd 3939 1e3e
000003f0: 989f 9cbe bd3c 1bbe a5a7 ef3d 35fb f6bb
-0.11271424 0.3958194 0.6423816 0.5628123 0.41655526 -0.003869754 0.58032715 0.42735043
-0.21758513 0.24824126 0.203729 0.5907849 -0.07440848 -0.6841378 0.19940902 0.24777403
0.030900257 -0.46763903 -0.39358878 0.24673998 -0.23044445 -0.4358715 -0.39740855 -0.21943803
-0.039531328 -0.2018907 -0.1756037 -0.6268653 -0.87606406 -0.675903 0.2514677 0.37309366
-0.29582116 -1.0028253 -0.30215055 0.3154138 0.41810134 -0.4920029 -0.94885606 0.062081505
0.5800135 -0.12174019 -0.70211625 -0.5420881 0.39135718 0.40324652 -0.0989859 -0.28253564
0.12062143 0.33026814 -0.2558008 -0.009976373 0.20684038 0.0013734892 0.007464368 -0.09779864
0.27049384 0.29402617 -0.2361637 0.09238339 0.19074209 0.33745906 -0.31918287 -0.53517747
0.34296662 0.0899678 -0.0929657 -0.5735003 -0.26913336 0.53205407 0.11359989 -0.22442648
-0.21710286 0.33420065 0.41645935 0.05345493 0.21752407 0.043146703 -0.11094712 -0.23573844
-0.009532181 -0.15082528 0.08147518 0.26422083 -0.4957169 0.23658434 0.012096521 -1.0682789
0.49787349 0.40166146 0.042590365 1.3903478 -1.0950828 -1.411025 0.73112917 -0.5083802
1.1722631 0.52399904 -1.0549945 -0.1316909 -0.27741367 0.057601914 -0.07204649 0.13002723
0.54090697 -0.20522344 -0.25067985 -0.080709554 0.33172 0.13460551 -0.0030375256 -0.02208561
-1.0816319 0.39936566 0.9623632 -0.26639074 1.3533998 -1.1340772 -1.3213557 1.1311238
-0.9580024 1.0411088 0.5931808 -0.9668173 0.24678843 -0.3119662 0.06490415 -0.050345864
-0.21174163 -0.066568434 0.07757396 -0.033752125 0.01681325 0.42253914 -0.4823746 0.04890858
0.23001862 -0.9403603 0.31816608 0.37832758 -0.16793485 1.3723655 -0.9956829 -1.3434852
0.6752181 -0.60891813 1.1734037 0.7947693 -0.89651424 0.12487002 0.15773508 0.28301734
0.15751049 -0.02795546 0.20378047 -0.012642833 -0.024947958 -0.22906537 0.11270831 0.34277758
-0.0004721845 -0.19286421 0.06981542 0.3009913 0.2891792 -0.015132762 -0.115440995 0.13929017
0.055065904 0.14616112 -0.0666784 -0.06477452 -0.07834402 -0.21191466 -0.14678311 0.07642229
0.01749179 -0.13047564 -0.24984756 0.062928766 -0.10918329 -0.2799203 -0.35160896 -0.0038207269
0.19402859 -0.0013717833 -0.44745904 -0.18070218 0.26627362 0.33187845 -0.17866443 -0.32450873
-0.10413708 -0.07238791 0.06612271 0.020545932 -0.18811694 -0.07237215 -0.20474902 -0.10979877
-0.33562702 -0.4364893 -0.088291675 0.09737566 0.47614777 -0.45490754 -0.71830744 -0.37292787
0.35533324 0.79630685 -0.49650607 -0.5346931 -0.011393118 0.46968478 0.758633 -0.35387057
-0.20283003 0.19052851 0.46767402 0.5627591 0.085155055 0.0734017 0.35352445 0.31208375
0.45316777 0.4062672 0.026356414 -0.43560782 -0.29900604 -0.163033 0.32205433 1.0722423
1.2442747 1.0904428 0.53133607 -0.4630368 -0.3207228 -0.38510036 0.055303022 -0.11049492
-0.0129117565 -0.12257666 -0.6573303 -0.5182935 0.24044101 -0.48229316 -0.152951 -0.015734654
-0.11047266 -0.36433855 -0.032597993 0.15451516 -0.3059051 -0.15159889 0.117018975 -0.0075372704

conv1.bias f4 [6]
00000000: ed27 0cbf d135 d1be 11f9 e8be 4e2e 0abf
00000010: f30a 15bf 2280 033f
-0.5474842 -0.4086137 -0.45502523 -0.53976905 -0.5821983 0.5136739

conv2.weight f4 [16, 6, 5, 5]
00000000: 8a8e f03c 9b25 9d3e 09ad e2bd e062 99be
00000010: eda5 bbbe b3a4 cd3e 18b0 0abe 9055 17bf
00000020: 006e bf3c fe2c cf3a 7aa8 433e 837d ebbe
00000030: 4cdd 073e df2d a0bc 0706 64bd c7f1 b3be
00000040: 218a 1ebe 9586 423e 0cbe 10bd 4ed0 113d
00000050: 1564 a7bd e01f da3e bac4 d1bd cba5 0a3e
00000060: 7baf d1bd b1a3 c8bd 67e2 c8be a0b0 28bf
00000070: 3173 1bbf cc9f 08be 51ec a4be 07a5 afbe
00000080: d901 10bd 3c96 493d f371 333b 031b 55be
00000090: 91a1 4cbe a258 f8bc 78ad 9c3d 248e 1bbd
000000a0: a458 5b3c 05f5 c8bd d993 aabb 6923 42be
000000b0: 4e57 5f3e 547e a03c 5d00 963d 1630 adba
000000c0: a932 243e 74cd 02be 6940 60be 05bd 2ebe
000000d0: f194 db3e 1958 6f3e 14c5 053e f92f e6bd
000000e0: ec95 113f 9c79 bd3e c68b 50bd 92cd 28be
000000f0: 8f9e a63e 0dd3 c83e 27b5 b4be 2326 f7bd
00000100: 4673 193d 591b 893e f253 cebe e634 c6bd
00000110: 1efd 4f3d 9f66 213e 1254 dfbd 859d 28be
00000120: 0249 173e 11ac c2bd e830 52be 5ce0 893c
00000130: 2d09 e5bc be7b 723d 106e dabd 1976 23bd
00000140: 8c2b 5c3e b40b 6cbe c075 04be 74bd 623d
00000150: db14 a2bd 4c48 babd 5d9d 8ebe bbd6 b6bd
00000160: 6c43 313e 1233 ca3d e71f a1be 99b0 bbbd
00000170: c798 dc3d 6eaa 993d 624e 28bd 05e5 aabd
00000180: a43f 55be de6c c63c 87b3 203d b390 03be
00000190: a5a2 473e 6b8f cdbd 9842 863d 7b25 e73e
000001a0: ead8 ba3d 439a 84be 1807 b63e dd09 0f3f
000001b0: 9a46 f039 c502 f2bd 948c 6a3e 49ef a83e
000001c0: d857 41bc 2f64 77be ddce 2dbe 147b d03e
000001d0: ed9b a0be 149f 92be f3e7 5a3e 897f 8e3e
000001e0: 3c71 02bd a114 ca3a d93b 683e 8633 adbc
000001f0: bde1 9c3d de44 67bd 0c54 0f3d bf65 803d
00000200: c7f6 343e a084 ce3d 81ec 0f3e db33 563d
00000210: 2084 d93d fab8 d3bd 498f 6abe c21f 493e
00000220: a360 8d3d de29 e8bd 8827 92be 9d74 1dbe
00000230: 1607 b93d 2b5e 933d bb87 81be 4c71 2cbe
00000240: 0a56 26be 0dbe bb3d fb1d cfbd 96aa 1bbe
00000250: 028f 1abe 6d49 42be 38c1 1d3e f8f9 27be
00000260: a319 463e f412 8fbd e967 603e b92c c83e
00000270: 5dd7 34be f71e b13e 8228 0a3e 2dc0 5fbc
00000280: a3c9 1b3e 9909 bbbc d4d8 843e 9af3 103e
00000290: 0e05 053e b083 7dbe a4cd f7bd 1ac5 59bd
000002a0: 32aa 923d 19b4 c2be 7033 1abf 6c36 babe
000002b0: 8e09 dbbe d2b6 02bf d1ee b7be 2bf2 eb3e
000002c0: 9f7e 57bc 31ef d03e 27c1 8e3e b1e8 ba3e
000002d0: e2ad 863e b084 303e e751 073f e7b8 213e
000002e0: deb1 ff3d c7e4 103f 84ad 543e 459c a03e
000002f0: 2d6a 463b f52c 93be 3a03 c1bd 1bab c2be
00000300: 3f81 0fbf 08a1 e6be b1ec 05bf 3fce 59bf
00000310: 71cc 70bf 3d14 6abf f713 78bf ff98 21bf
00000320: fb24 8c3e 2263 8fbd 531d d33c f71c 2fbe
00000330: a1f0 77bd fddf 313d 3a05 c4bd 19ed 47be
00000340: 6332 1c3e 40aa b63d 029f d8bd 79ce 43bc
00000350: 90fe 7ebd 2199 603e 7940 653e 4f70 b93c
00000360: 61cb 9837 7c08 56bd 5806 c43c 0fe3 313e
00000370: c90f 04be ee04 a1be ec2e b2be 1d9d b1be
00000380: 418b 08be e3e6 163e 1d05 7c3e 0df1 983d
00000390: 55bd ac3b 130c 243e 15e3 b3ba c518 053e
000003a0: 34f0 d0bc 16e7 88be 43af 6abe c3ec 3d3e
000003b0: ddb4 0f3e 117c 083c ae89 0ebe 6867 3abd
000003c0: 21e9 c7bd 0ee1 4b3c c9de 75bd 8ba0 96bd
000003d0: 5808 c7bd eacb 33be fd45 b8bd 1609 b23c
000003e0: fd48 eebd 1272 68be 57c9 67bc 5bd1 7fbd
000003f0: fb2e 8bbd 3d7d 60be 39bd 753e d25c 763d
0.029364843 0.30692753 -0.1106816 -0.29958248 -0.3665003 0.40164718 -0.13543737 -0.59114933
0.023367882 0.0015806255 0.19107237 -0.45994195 0.13268012 -0.019553123 -0.05566981 -0.351454
-0.1548238 0.18996651 -0.035337493 0.035599045 -0.08173386 0.42602444 -0.10242601 0.13539807
-0.10238548 -0.09796847 -0.3923523 -0.6589451 -0.60722643 -0.13342208 -0.32211545 -0.34305593
-0.035158012 0.04921554 0.0027381151 -0.20811085 -0.19983508 -0.0303157 0.07650274 -0.037977353
0.013387833 -0.09812359 -0.005205613 -0.1895882 0.21810648 0.019591488 0.07324288 -0.0013213183
0.1603495 -0.12773687 -0.2189957 -0.17064293 0.4288707 0.2337345 0.1306346 -0.11239619
0.5686939 0.37006843 -0.05091455 -0.16484669 0.32542846 0.3922352 -0.35294458 -0.12067821
0.03746345 0.26778677 -0.4029842 -0.09678058 0.0507785 0.15761803 -0.10904707 -0.16466339
0.14773944 -0.09505475 -0.20526469 0.016830616 -0.027958477 0.05920004 -0.10665524 -0.03990755
0.21500987 -0.2305134 -0.12935543 0.055356458 -0.07914134 -0.09095821 -0.27854434 -0.08927675
0.17310876 0.09873022 -0.31469652 -0.09164543 0.107713275 0.0750321 -0.041090377 -0.08344463
-0.20825058 0.024221834 0.03923371 -0.12848167 0.19495638 -0.100371204 0.065556705 0.45145783
0.09123404 -0.25898942 0.35552287 0.55874425 0.0004582897 -0.118169345 0.22905189 0.3299506
-0.011800729 -0.24159311 -0.16973443 0.407189 -0.31368962 -0.28636992 0.21377544 0.27831677
-0.03184627 0.0015417525 0.2267908 -0.021142732 0.07660244 -0.05646216 0.034992263 0.062694065
0.17672263 0.1008389 0.14055063 0.052295547 0.10620904 -0.10338016 -0.22906221 0.19641021
0.069031976 -0.113361105 -0.28545785 -0.15376516 0.09034555 0.071956955 -0.25298867 -0.16840094
-0.16243759 0.09167109 -0.1011314 -0.15201792 -0.15093616 -0.18973322 0.15405738 -0.1640395
0.19345717 -0.06986037 0.21914639 0.3909662 -0.1766028 0.34593937 0.13492015 -0.013656658
0.15213637 -0.022831725 0.25946677 0.14155427 0.1299021 -0.24757266 -0.1209977 -0.053166486
0.071613684 -0.3802803 -0.6023474 -0.36369646 -0.42780727 -0.5106021 -0.3592439 0.46083197
-0.013152747 0.4080749 0.2788174 0.36505654 0.26304537 0.17238116 0.5285935 0.15793191
0.12485097 0.56599087 0.20769316 0.31369224 0.0030275688 -0.28745237 -0.094244435 -0.38021168
-0.5605659 -0.45044732 -0.5231429 -0.8508033 -0.9406195 -0.9143713 -0.96905464 -0.6312408
0.27371964 -0.0700133 0.025770819 -0.17100893 -0.060532216 0.043426502 -0.095713094 -0.1952404
0.15253596 0.08919191 -0.10577203 -0.011951082 -0.06225449 0.21933414 0.22387876 0.02263656
1.8214518e-05 -0.052254185 0.023928806 0.17371772 -0.12896647 -0.31449074 -0.34801424 -0.3469018
-0.13334371 0.14736514 0.24611326 0.07467852 0.0052715936 0.16020231 -0.0013724292 0.1299773
-0.025505163 -0.26738805 -0.2291842 0.18547349 0.14033838 0.008330361 -0.13919708 -0.045508772
-0.09761263 0.012443794 -0.060026918 -0.0735484 -0.09718388 -0.17558256 -0.08997724 0.021732848
-0.11635015 -0.22699764 -0.014147124 -0.062455516 -0.0679607 -0.21922775 0.23997964 0.060147114

conv2.bias f4 [16]
00000000: a74b da3e a9b6 babe 41e6 9ebf 914d 2c3f
00000010: 629b 9abd d139 9d3f 99d3 8a3e db4e 45be
00000020: b55c c8be 86ed 163f 9c81 bdbe 6c78 6ebf
00000030: bba8 f23e 8ac7 0140 c9c4 edbf 88c5 ea3f
0.42635843 -0.36467484 -1.2414018 0.67305857 -0.07549168 1.2283269 0.2711456 -0.19268362
-0.3913323 0.5895618 -0.37012947 -0.931525 0.47394356 2.027804 -1.8575679 1.8341532

fc1.weight f4 [120, 400]
00000000: 9528 9f3d 8923 fd3c 7caa 673d 7de4 2dba
00000010: 78da 8739 755f 95bc 74ea a1bd aa91 f3bc
00000020: 4c96 1cbd 250e 9c3d 425e cfbc 309c 1abe
00000030: 1056 383c 2649 afbd cbd6 053e d5c7 dabd
00000040: e24f 92bd f7ce 4fbc 6d53 093d 89ae fb3c
00000050: ca67 05bd 773f c8bd 95d8 053e 8655 c33c
00000060: b212 b7bd 8307 d3bd c19e 12be bf6c 34be
00000070: f013 1ebe 93f6 89bc 25ff 8a3c 0920 bcbc
00000080: 0013 a63c f3dc d5bc 40dc 91bc 69e9 003d
00000090: 5960 0dbe faf4 9cbd 7039 cfbc 5cc0 f73c
000000a0: 203b da3d 663f 1b3d b74f 183e 96d5 8b3d
000000b0: a23d 0cbe 417b d53d 77c5 263d 9fdf 013e
000000c0: 7390 3bbd 71b9 67be 7e38 71bd 3ccd f43b
000000d0: 2168 1d3d 545a b43d 61b2 2a3d fced 9d3d
000000e0: 4e4f 193d 5c2f cabd 4d0f 30bd b377 0cbd
000000f0: 7ad8 183e 90ff cc3c 5e60 c0bd abc3 01be
00000100: 42c1 c2bc e15b 66bc 2d49 19be 8a03 1abd
00000110: 4d4e 8bbd 07b5 a8bc 8860 17be 8fe6 1bbe
00000120: 3a05 c5bd ceb8 e1bc d749 8a3d 3da8 763d
00000130: d973 8a3d f07c 02bd ab84 fcbc 2174 65bd
00000140: 6431 a2bc 03ae 053e 2489 82bc 664a d43c
00000150: 47d1 173d 0498 113d 26e0 4e3d c337 95bd
00000160: b9ed c8bd 7f44 b03d c800 013e 8979 31bc
00000170: 981b 3dbd 92cb 28be bc7d 0bbe 96d7 d9bd
00000180: a949 6b3c a354 703c 7c1c 273a f71e 403d
00000190: 7e67 13bd 8b67 72bd 06cf 093d 164e 33bc
000001a0: 6b9f 1c3e ea9a 93bd c721 bc3d 2902 443d
000001b0: 005f bf3a c6d6 8c3d 4df9 793c 3add ed3b
000001c0: 3a5d 4fbd e191 86bd 741a 883b ab18 a7bd
000001d0: ab33 963c 1f7d 4d3d 3c2c 5c3c 59c9 6f3c
000001e0: 551f 23be f690 92bd b071 11bb c68c d3bd
000001f0: 00cb bfbc 20a1 043e 932d b53d d996 2b3d
00000200: a480 1f3c b3e9 3b3d 21fc 963d dbc3 cb3d
00000210: 2457 5ebc 3298 adbc 651f 0abd f49f 9c3d
00000220: aaa2 1b3d 4515 93bc 4ed9 18bd 62ad 52bd
00000230: 8abd e43b cdd0 92bd 3dc1 86bd 0fff 9fbd
00000240: 0c31 4ebd 5c31 eb3d 1bdf dbba ad9e bebc
00000250: a547 553d 4034 623b 3add 2fbe 80cb ebbd
00000260: 7e9c f0bd a348 b73c 1340 b9bd dc64 24be
00000270: a683 58be 7b57 41be a575 a4bd cb32 27be
00000280: 84a9 ffbd 031f 35be 57cc 08be 7720 2abe
00000290: dc95 13be 0d88 523d 058f 3a3b b64b dfbd
000002a0: c656 a7bc 0300 19be a1d1 273e be34 c93d
000002b0: 31df 9ebd 166e cebd 6f3a 89bd 1d75 163d
000002c0: 4440 8f3c 302c bebc 3018 30bb 51aa 68bd
000002d0: bded db3d 1dfe ce3d 54da 453c bf8b 973c
000002e0: ab36 81b9 a3f2 89bd fcd8 613d 765c 0a3d
000002f0: 82d8 f53c 8785 e1bd 7f4c 93bd f147 20bd
00000300: 8a6e 55bd 969f 12bd 8749 d4bd 2aaa 42bd
00000310: 5bd1 acbd ebc3 a4bc 1445 07bd c995 75bd
00000320: 797f 863d 83b5 25be 11c9 4dbd e281 abbc
00000330: f645 bbbd 9ef1 fa3d ba3a 0ebd 5356 9b3d
00000340: c6b3 b7bd cac8 8fbd 8f25 f83c 84ac 043e
00000350: 3f02 9ebd 1b29 01be c2a7 bebd e2cf d639
00000360: b677 ffbd 2dc2 12be 923d e43d 76fc d1bc
00000370: 2922 b9bd d97c 693d c6aa 5f3d fe9e 403e
00000380: 009f 083e 1e57 683e 1d77 8b3e ea9c af3b
00000390: 9958 82bd 025c b7bd 69f6 073d 215f 3c3d
000003a0: 4b1d 833d 5b9a 17bd f1e6 2abe 776f 90bd
000003b0: 7002 a13b 6c4f 08bd d29d b33c eb20 0fbd
000003c0: dc14 5d3c 61fa 2b3e c3fe 67bc be55 d4bd
000003d0: 16ed b2bd f3ca 373e e816 ad3d 85ea 4f3d
000003e0: 782f 3dbd 8661 67bd 20e6 483d 22c2 4d3b
000003f0: ad16 1cbe 1ea4 15be b952 fdbd 24f1 02bd
0.07771412 0.030900734 0.05655907 -0.00066334737 0.00025911978 -0.018233994 -0.079060465 -0.029732544
-0.03822927 0.07619885 -0.0253135 -0.15098643 0.011250988 -0.08558874 0.13070218 -0.10682646
-0.07144143 -0.012683622 0.033526827 0.030722873 -0.032569684 -0.0977773 0.130709 0.023844492
-0.08939113 -0.10304167 -0.14318372 -0.17619608 -0.15437293 -0.016841209 0.016967366 -0.022964494
0.020272732 -0.026106333 -0.017805219 0.031472597 -0.13806285 -0.07663913 -0.025295943 0.030243091
0.106558084 0.03790226 0.14874159 0.06827848 -0.13695386 0.104238994 0.04071566 0.12682961
-0.045792054 -0.22629334 -0.058891766 0.007470755 0.038429383 0.08806291 0.04167402 0.077114075
0.037429146 -0.09872314 -0.042983342 -0.03429384 0.1492633 0.025024205 -0.093933806 -0.12672298
-0.023773793 -0.014059992 -0.1496932 -0.03760103 -0.06802044 -0.020594133 -0.14782917 -0.1522467
-0.096201375 -0.027553942 0.06752365 0.06021904 0.067603774 -0.03185743 -0.03082498 -0.056018952
-0.019798942 0.13054661 -0.015934534 0.025914382 0.037064817 0.035545364 0.050506733 -0.07286026
-0.09810967 0.086068146 0.12597954 -0.010832199 -0.046168894 -0.16483906 -0.13622183 -0.10636823
0.014360824 0.0146686165 0.0006374789 0.04690453 -0.03598737 -0.059180778 0.0336447 -0.01094391
0.15295188 -0.07207282 0.0918613 0.047853623 0.0014600456 0.06876902 0.015257192 0.0072590383
-0.050626017 -0.06570793 0.004153544 -0.08159002 0.018335184 0.050168153 0.013438281 0.014635407
-0.15929921 -0.07156555 -0.0022193007 -0.10329585 -0.023412228 0.1295209 0.08846583 0.041891906
0.00973526 0.04587717 0.073723085 0.09949466 -0.013570581 -0.021190736 -0.033721346 0.07647696
0.037996925 -0.017954478 -0.037316613 -0.051434882 0.0069806026 -0.07168732 -0.06579826 -0.078123204
-0.050339743 0.11484024 -0.0016774865 -0.023269022 0.05207028 0.0034516007 -0.17174235 -0.11513424
-0.117485985 0.022373503 -0.09045424 -0.160541 -0.2114397 -0.18881027 -0.080302514 -0.1632797
-0.124835044 -0.17687611 -0.133592 -0.16613947 -0.14412636 0.05139928 0.0028466594 -0.109031126
-0.020427119 -0.1494141 0.16388561 0.09824513 -0.07757414 -0.10079591 -0.067005984 0.03673278
0.017486699 -0.02321443 -0.0026869886 -0.05680305 0.10738704 0.10107062 0.012075979 0.018499253
-0.00024645528 -0.067357324 0.055138573 0.033779584 0.030010466 -0.110117964 -0.07192325 -0.03913111
-0.05210737 -0.035796724 -0.10365587 -0.047525562 -0.08438369 -0.020112952 -0.033024862 -0.0599573
0.06567282 -0.16182522 -0.05024058 -0.020935956 -0.09144203 0.12253116 -0.034723975 0.075848244
-0.08969836 -0.07020719 0.030291347 0.12956434 -0.07715272 -0.12613337 -0.09309341 0.00040972146
-0.12474005 -0.14331885 0.11144556 -0.025633078 -0.09039719 0.05700383 0.05460622 0.1881065
0.13341904 0.22689483 0.27239314 0.005359282 -0.06364555 -0.08953096 0.03319398 0.04598916
0.064020716 -0.03701244 -0.1668966 -0.0705251 0.0049136207 -0.033278868 0.02192584 -0.034943502
0.013493743 0.1679473 -0.014159861 -0.103679165 -0.08736627 0.17948513 0.08451635 0.050760765
-0.046187848 -0.05648949 0.04904759 0.003139623 -0.15243025 -0.14613387 -0.12369294 -0.03196825

fc1.bias f4 [120]
00000000: 6e09 853e 8c3a 1ebe 1a54 6dbb 9b50 363e
00000010: 7cc5 323e 567e bd3d edaa bcbd 4fae d03d
00000020: 9f31 313d f7c2 0f3d 9779 9ebd e936 d43d
00000030: b6a3 3bbe 4037 dc3d 3584 0fbe 17b5 d2bc
00000040: 0757 14be a2af 493b 34f9 b73d 13f2 b13e
00000050: b8bd 1bbe b029 82bd 6676 fabd f2ba ce3e
00000060: 8dda c43d fca1 e7ba 56fa c2bd c197 74bb
00000070: 122f 20be e815 fa3c 6eb8 4c3d ddca 88be
00000080: dcdd e33d 11bb b8bd 8b62 9e3d c3fd 31bb
00000090: 160a 5b3a a87f f2bd 2c61 873c 42ec 853e
000000a0: e255 c43b 2be5 2ebd 19ee 793e 2850 9b3e
000000b0: 4008 68bd e9ee 573e 9c04 90bd b282 a0bd
000000c0: ca34 1bbe 5c10 a63d 3ec8 333e 2003 9fbe
000000d0: a3e1 06bd d1e6 50bd 07ae ab3e f88b d03d
000000e0: 11b4 5a3e 2594 673e 553d 19bd 70c6 983d
000000f0: 7710 623d c91d e8bd 70bc d53d 96ac 913e
00000100: 4fa8 433d 7357 313e 9f86 c1bc cb4e 15be
00000110: 5cfe 023d 71a9 a93e e784 a0bb a20f 73be
00000120: b8d3 103e 4d5e 293c d8b8 943d 08f8 d83c
00000130: 11eb ee3c 4926 b6bc 864a aa3e 1a18 383e
00000140: c725 003e 4fce af3e ccec a63d ada9 f13c
00000150: d00a 3b3e d875 ebbd 347e 293e 86a5 163e
00000160: 7e95 41be c107 a2be c366 063e 5488 d63d
00000170: b2f1 b4be 0911 5a3d e39c 68bd 3d62 8abe
00000180: 07fe a7bd 355b dabd 3949 863d 150b 6f3d
00000190: 47b2 b73c bbcf d33c b4d7 863e c1a1 77bc
000001a0: af2d 493d 0d7f d3bd e2b5 4c3e 26d0 3ebe
000001b0: 7397 7d3d 1d05 d83e 3eb1 d03d 6739 8e3e
000001c0: c38b 04be d526 1f3e f233 a7bd b6b3 a13d
000001d0: c6a1 40bd cddc 17bd 35c6 23be e524 82bc
0.25983757 -0.15452021 -0.0036213459 0.17804186 0.17458147 0.09252612 -0.09212289 0.10189497
0.043260213 0.035098042 -0.07738035 0.10362036 -0.1832417 0.107527256 -0.14015277 -0.025721116
-0.14486323 0.0030774851 0.089830786 0.34755 -0.1520909 -0.063556075 -0.12229614 0.40377003
0.09611998 -0.0017672176 -0.09520404 -0.0037321898 -0.15642956 0.030528024 0.049980573 -0.26717272
0.11126301 -0.09020055 0.07733639 -0.002715931 0.000835569 -0.11840755 0.016525827 0.26156813
0.0059916833 -0.04269902 0.24407233 0.30334592 -0.056648493 0.2108723 -0.07032129 -0.07837428
-0.15156856 0.08108589 0.17556855 -0.31057072 -0.032930028 -0.051001374 0.3353121 0.10182947
0.21357752 0.22615106 -0.037412006 0.07459724 0.055191483 -0.11333806 0.10436332 0.28451985
0.047767933 0.17318515 -0.023623763 -0.14580838 0.031980857 0.33137086 -0.0048986557 -0.23736432
0.14143264 0.010337424 0.07261819 0.026485458 0.029164823 -0.022235053 0.33259982 0.17977944
0.12514411 0.34337088 0.08150634 0.029499853 0.18265843 -0.11497086 0.16552049 0.1471158
-0.18904683 -0.3164654 0.13125138 0.10475221 -0.3534065 0.053238902 -0.056790244 -0.27028075
-0.08202749 -0.106619276 0.06556935 0.058360178 0.022423876 0.02585589 0.26336443 -0.015114249
0.049115833 -0.103269674 0.19991258 -0.1863409 0.06191201 0.421914 0.10190056 0.2777817
-0.1294394 0.15542157 -0.08164205 0.07895605 -0.04702928 -0.037075806 -0.15993579 -0.015886733

fc2.weight f4 [84, 120]
00000000: a6f3 4fbe 1309 143e c2ea 2c3e e422 f03d
00000010: 8d9b 56bd 008d c9bd 7a77 d8bc 9776 21be
00000020: b560 5dbd ffdb d3bd ccf2 43bd af44 bdbd
00000030: 197c ddbd a503 7c3d e024 51bd 7ba3 22be
00000040: 54e8 84be dda0 163d 2d3a 0abe c9d5 b03d
00000050: 3a96 803e 1963 02bd 4c3c 94be 3129 74bd
00000060: 7616 623d 2be0 bebd 5826 67bd 6a97 2c3d
00000070: d946 923d ec18 dbbd f10b c3bd a62e 013d
00000080: 15df 23be 5ab5 dfbd 0d16 8e3b 1c68 aebd
00000090: 6314 7cbd 2121 23be 0d9e 79bd 9617 433e
000000a0: 946d c5bd 593e 58bd 4cab 92bd f088 1d3e
000000b0: 53ef eabd 0cfd 5b3c 6fca 43bd 11f6 91bd
000000c0: 98e0 03bd 1000 5e3e 5008 a9bd 7972 b63d
000000d0: 5198 e4bd 244e febd c283 1abd 6ccf 013d
000000e0: 0c0d bb3d 048b 643c 2656 2a3e f7a1 0d3e
000000f0: c26c 03bd d4da 0ebe f23e 05bd 53a5 aa3d
00000100: 490f 06be 6190 6b3e 2fb0 a03d df98 363d
00000110: 2469 a9bc 3512 d33d 93b2 a8bb da92 d9bd
00000120: 61dc debd 810b 0c3e ab69 4abe 4474 1e3e
00000130: 1064 933d 41c7 d7bd 7d12 003d 31da 0abe
00000140: 2994 30bd b6eb 0ebe b522 21be 544e 53be
00000150: aa07 0bbe 44a7 883d a046 11be bef3 25bc
00000160: 455c 2c3d 013d 93bd 6166 1abe 2750 a6bd
00000170: 7bf0 47be 865b b7bd 747a 0ebe 8c22 20be
00000180: 7cf1 23bd 9555 c63d 61a6 98bc 5930 af3d
00000190: a06e 21bc d90e 353e 4337 abbd 059e 2a3e
000001a0: a19c fe3b 160b 7e3a 505d 74bb 8692 a7bb
000001b0: 0d94 aa3d ec7f 083e 2c77 0abe 2ded 673d
000001c0: 2163 86be aef5 77be 39ef 153e 0ee6 893c
000001d0: 8870 adbd 21e0 e6bc e05b 69be 9a51 70bc
000001e0: 5657 213d 489c 5b3c e891 2a3d 4597 593d
000001f0: 86fe 993c d338 163e 31e6 033c e4c8 12bd
00000200: e5e5 d2bd 04cc 12bd 2a8b 643d 64ad 143e
00000210: 46b6 63be cb38 84bd 1a11 10be abe0 94bd
00000220: fe5d 193d 9dda d8bd 0e4d fc3d d6e3 ffbd
00000230: b532 95bd 6b6e 96bd 8f9e acbd f401 2e3e
00000240: 7993 aabd eabe b0bd 8dc1 75bd a646 58bd
00000250: 3316 0ebd 20c4 6fbe a516 d8bd 90b0 08be
00000260: 7972 e139 5fe6 05be 714b 35bd d8d8 c43d
00000270: 7661 23be 9f1d 13be 1a52 dabc 3f73 92bd
00000280: 98df e4bb 58d9 bbbb 5c7d 40bd 9e56 d33d
00000290: ca4b d2bd 5139 9e3d 3901 28be ddce c13c
000002a0: aa56 a2ba eddf 463d 1a1e 23be aab8 eb3d
000002b0: 6131 553d ecb1 4dbe 33c3 323e 096e 493d
000002c0: 226d c33d e6e9 493d 9be2 08bd 5016 73bd
000002d0: 1090 a2bd 4bb8 34be f37a 8bbd d48e f83d
000002e0: 9ab3 683c e503 e2bc 76c6 f0bd abb3 03be
000002f0: 355f f23c 8b52 64bd 1038 c33c 5622 6abe
00000300: deb1 82bd f607 25bd acb2 0fbd e061 4dbe
00000310: f4b8 753c 185a 243a 2813 35bd 5b17 93bd
00000320: ffe2 79bd e454 f43d 8362 89bc f060 60be
00000330: 1277 7e3d c926 91bd 50e8 febd 8d9a 42bc
00000340: 5948 34be 3e38 d8bd 2682 14be a8b2 08bc
00000350: 5fa8 babc 7e5d b4bd b50b 35bd 5b4f 55be
00000360: f3a0 a1bd 8187 323c 97b5 f03b a9b5 b23d
00000370: 6058 a2bd 1f92 11be 0360 863d c76c 9d3d
00000380: 1b0a c63c 178e 8bbc 61a4 9d3c 68fd 8bbe
00000390: a667 31be 38ea 7bbd e0fe 3ebe 725a 033e
000003a0: 74c5 24be 6d8c 8c3d f99a 24be c471 77bd
000003b0: 2c7e 5cbd 93f9 db3d dc92 03be e0dc 033d
000003c0: b647 31bc 7340 d8bd 0e0f 823a b7b1 2fbd
000003d0: 00bb 01bd 0291 a7bd 1b1b 38bd d176 31bd
000003e0: bef3 1d3d aaa7 d03d 5ff7 dcbb fd2e 07be
000003f0: 6a59 95bd a5b7 403c 7cbb 64bd 50c5 b3bd
-0.20307788 0.14456587 0.16886428 0.11725405 -0.05239444 -0.09841347 -0.026424158 -0.15767895
-0.054047305 -0.10344695 -0.04783897 -0.09241616 -0.108146854 0.061526913 -0.051060557 -0.15882675
-0.25958502 0.036774505 -0.13498755 0.08634526 0.25114614 -0.03183279 -0.28952253 -0.059609596
0.0551972 -0.093201004 -0.05643305 0.042136587 0.07142419 -0.10698113 -0.09523762 0.031538628
-0.16003068 -0.10923262 0.0043361248 -0.08515951 -0.06154288 -0.15930606 -0.060941745 0.19051966
-0.09640041 -0.052793834 -0.071615785 0.15384269 -0.11471429 0.01342703 -0.047800478 -0.071270116
-0.03219661 0.21679711 -0.082535386 0.08908553 -0.111618645 -0.12417248 -0.03772331 0.031691954
0.09133348 0.0139491595 0.16634426 0.13831316 -0.03208614 -0.13950664 -0.032530732 0.08332314
-0.13091768 0.23004295 0.07846104 0.044579383 -0.020680018 0.10306207 -0.005148241 -0.10623713
-0.10881878 0.13676263 -0.19766872 0.1547404 0.0719682 -0.105360515 0.03126763 -0.13559796
-0.043110047 -0.13957104 -0.15735896 -0.20635349 -0.13577142 0.066725284 -0.14187098 -0.010128913
0.042080183 -0.0718937 -0.15078117 -0.081207566 -0.1952533 -0.089530036 -0.139139 -0.15638179
-0.04002522 0.09684292 -0.018634023 0.085541435 -0.009853035 0.17681445 -0.0836015 0.16661842
0.0077701365 0.0009690983 -0.0037287064 -0.0051139025 0.0832902 0.13330048 -0.13522023 0.056622673
-0.26247504 -0.24214813 0.14642037 0.016833331 -0.08468729 -0.028183045 -0.22788954 -0.014667893
0.03938993 0.01340396 0.041643053 0.053122777 0.018798124 0.14670114 0.008050487 -0.035836115
-0.10297755 -0.035839096 0.05579678 0.14519268 -0.222375 -0.06456145 -0.14069024 -0.072694145
0.037443154 -0.10588572 0.123193845 -0.12494628 -0.07285062 -0.07345279 -0.0842868 0.16992933
-0.083289094 -0.08630164 -0.059999038 -0.05280175 -0.03468914 -0.2341466 -0.10551194 -0.13348603
0.00043000633 -0.13076161 -0.0442614 0.09611672 -0.15955147 -0.14366768 -0.026650477 -0.07150888
-0.0069846623 -0.0057326965 -0.046994552 0.10319255 -0.10268362 0.07725776 -0.16406716 0.02365821
-0.0012385447 0.048553396 -0.15929452 0.11509831 0.052049045 -0.20087403 0.17457275 0.049177203
0.095423 0.04929533 -0.033419233 -0.05934745 -0.07937634 -0.17648427 -0.0681056 0.12136617
0.014202977 -0.027589748 -0.117566034 -0.12861507 0.029586414 -0.05574278 0.023830444 -0.2286466
-0.06381582 -0.040290795 -0.035082504 -0.20056868 0.01499771 0.00062695285 -0.044207722 -0.07182189
-0.061007496 0.11930254 -0.016770607 -0.21911979 0.062125273 -0.07087476 -0.12446654 -0.011877668
-0.17605723 -0.10557602 -0.14502773 -0.008343376 -0.022785364 -0.08806895 -0.044200618 -0.20831053
-0.07892027 0.010896564 0.007345866 0.08726055 -0.079270124 -0.14215897 0.065612815 0.07686763
0.02417474 -0.017035527 0.019243421 -0.2734177 -0.17324695 -0.061502665 -0.18651915 0.12827471
-0.16090947 0.068627216 -0.16074742 -0.06041123 -0.053831264 0.10740962 -0.12848991 0.032193065
-0.01082032 -0.10559168 0.00099227 -0.04289409 -0.031672478 -0.08181955 -0.044947725 -0.043326203
0.03856253 0.101882294 -0.006743356 -0.13201518 -0.07292445 0.011762534 -0.05584286 -0.08777869

fc2.bias f4 [84]
00000000: 4fee c63e 45d3 683f ddaf d2bd fbfa 8f3e
00000010: 2147 80bd c8b1 99bd b647 6e3e 821c c63e
00000020: 7508 643d ac1b ccbd f2df af3d 1fb3 453e
00000030: 483c 713e 3587 383f 5c5f 09be 1a5b 013d
00000040: 7da3 79bd f43c 9f3e e385 9b3d 3470 053e
00000050: 9404 f63e 37f1 283d c529 713f e154 a03e
00000060: 0093 133e f7ed eb3e 6ff7 203e fc50 4b3d
00000070: 8fa7 c53e 7af8 3fbd 5d6d b23e d59e da3d
00000080: 1b54 a43c 4e8d 873d c668 35bd 9f3d 45bc
00000090: ef5a b1bd b1bf 7a3e 158b 733e 862a 34bd
000000a0: 5ae9 3f3c 8f68 6cbe d659 b23e e158 ea3e
000000b0: 2cc7 13bd 63e5 463e e19c 143f 9e0a f63e
000000c0: 8a9d e9bd 0675 4d3e f692 a93d 3f12 0b3e
000000d0: e623 c8bd e4b3 e63e cadf b9bc 139a 013f
000000e0: 4274 9f3d 220d 56bd 9a46 983e 5923 8c3d
000000f0: dcf8 123f ecd9 f93e 255d 7a3e 8329 da3d
00000100: 6c67 a83e 9355 7c3e 42c6 193e 6367 b83e
00000110: ceee 833f 8893 c83e 9985 e1bd f42f f7bd
00000120: 7b79 163f 399c 8c3d 6811 4fbe a7f8 32bc
00000130: 205a 58bd 7707 7e3d 2c67 1d3f 7cfb 573f
00000140: c7c2 a53d 9f76 603e 6eec c7bd 520c b73c
0.3885369 0.9094737 -0.102874495 0.2812117 -0.06263567 -0.07504612 0.23269543 0.38693625
0.055672128 -0.099662155 0.08587636 0.1930661 0.23558152 0.7208131 -0.13415283 0.03158102
-0.06094693 0.3110119 0.07593896 0.13031083 0.48050368 0.041245665 0.9420436 0.31314757
0.14411545 0.4607999 0.15719388 0.04963778 0.386044 -0.046867825 0.34849063 0.10674826
0.020059636 0.066187486 -0.044289373 -0.012038617 -0.08659922 0.24487187 0.23783524 -0.043985866
0.01171335 -0.23086761 0.34834164 0.45770934 -0.036078617 0.19423442 0.5805188 0.48054975
-0.11407001 0.20064172 0.08279984 0.13581179 -0.09772472 0.4505912 -0.022689719 0.50625724
0.07785846 -0.05225862 0.29741365 0.068426795 0.5741098 0.48799074 0.24449594 0.10652449
0.32891405 0.24642019 0.15017036 0.36016378 1.0307252 0.39175057 -0.1101181 -0.12069693
0.58779114 0.068657346 -0.20221484 -0.010923541 -0.052820325 0.062018838 0.6148555 0.8436811
0.080937915 0.2192025 -0.09761892 0.022344742

fc3.weight f4 [10, 84]
00000000: b5dc 75be 3d32 bb3a 1b39 fd3d ab6b 96bd
00000010: 68c4 113e 5265 973d f5e7 b23d 31fb 1e3e
00000020: 8179 13bd 99ff 4a3e 0045 0b3e e089 883d
00000030: e6dd 133d 682b 34bd 8db6 223e 71ef 953d
00000040: 1b44 a43d 2d8c 5d3e e719 ef3d 610f 923d
00000050: 074c 1dbd 61ff bc3d 8efa 033e 01d3 20bd
00000060: 071a 673e 2c2b 203e 0fce e93c d585 0ebe
00000070: 2bcb f03d cb53 793d 8811 56be fedc 393c
00000080: 3a54 3b3d 11dd 393e 0c98 323e cc85 393d
00000090: d763 483e 363c 4cbe 61f1 653d 93f7 07be
000000a0: 5bdc 603e abaf 343d 9ffe 92be a2cd dabd
000000b0: 6b83 25be a9c8 12bc c15a d0bd 2d6a 60be
000000c0: b1c4 0d3e 88a6 183e 5ed7 623e f692 3d3d
000000d0: 56cf 9b3c 70bf 5d3d 09b1 85bd a452 473e
000000e0: e375 38bd 28f5 b4bd 7a19 6fbe 849e 10be
000000f0: 0971 13be 8ee5 a73d de38 5a3e 685f 9abe
00000100: add5 7f3e 370c c9bd 5287 b63d 3b62 373d
00000110: 4d92 b8be 348a 413e f96a 8b3c e849 e2bd
00000120: bc6c 93bc ddd8 5bbc 1056 7f3e b660 843e
00000130: d153 a3bd f864 113e 6dba 28be 4239 27be
00000140: 59b1 c83d 506d 533e 1c84 283e 35f8 e43d
00000150: 14de 593c a81d 90be fce9 c0bd 37a3 5a3d
00000160: 6def 21be dee9 f23c 70a3 7b3d 1f62 ac3c
00000170: 7257 6abd ff05 403e 7655 a2bc 60ad 0f3e
00000180: a59f 213b 3011 39be 8119 0fbd ee59 cf3d
00000190: 2625 6bbe c61a 873e 3662 2abe c2f5 9abd
000001a0: 2fb5 a3be f7f0 0a3e 42fc 0abf 1229 57be
000001b0: 8a87 b3bd e092 143d 7e47 5ebc 0b48 01bd
000001c0: 98ec 10be 0b06 323d 22c0 81be a3f4 8f3e
000001d0: 4771 c43d 18e5 053e 5936 e9bd 5509 b13d
000001e0: 33b1 8f3d 8bbd 26be bf3e c3bd 7c6d ca3d
000001f0: 41e9 763e 2c59 543e 3c29 353e d448 dc3d
00000200: f581 82bd a988 003d cad5 9dbe ed08 9cbd
00000210: 6363 883e d046 393e 666a 84be c033 ed3d
00000220: c5ee 8f3d a483 85be 40ee 00be 6806 4dbe
00000230: 03c2 863e 17dc 5db9 b8be 943d 148b 31bc
00000240: 9c43 0abe 9a1c a33d e214 0c3e cf6c 523e
00000250: ba3b cc3d 17fb b9bd b252 f5bd 0f72 4e3e
00000260: 1c5a 23be 7ded 80be b676 703d 5a57 843e
00000270: ccfe d3bd 724e 6f3e 6b67 4dbe 61d8 6a3e
00000280: 90d3 843e c209 e4bd 8d9c b53c 4ac6 93be
00000290: b11d bebd 5c1e 603d c4f2 aabd 5a66 bdbd
000002a0: 9764 19be 499f 123e 1371 70bc 7a97 7f3e
000002b0: d6d7 813d 65cc 413e 8f91 02be b332 31be
000002c0: f632 d3bd f255 aa3c 7564 58be 905c a43d
000002d0: 072a 18be 5baa f7bd 3f8b c03d ed2a bdbd
000002e0: 15d1 4c3e 5c9c 1cbe 1470 253e c18e 50bd
000002f0: 3c50 a23d dcae 05bd 2ad2 453e 9dfd 6b3e
00000300: 206f 7abd 485b 4abe 7eb1 d23b b907 ec3c
00000310: 00f7 893e b699 4b3e 219b 62bb 0ab3 e3bd
00000320: 490a 3cbc a3c3 67bc acae 4c3c 8a1e fb3c
00000330: 332f 003e a904 053e 51de 713c 605c cd3d
00000340: cc37 36be 2507 2e3e 7387 23bd b9b3 94bd
00000350: ddb4 5d3d c6f2 69be 1f05 283e eae2 a13e
00000360: 088c ebbc 31a7 673b ce01 1e3e b673 a5be
00000370: d4a7 e0ba 6cb3 cd3d 2da1 ef3d 17f3 5ebe
00000380: ba06 8dbe c7b6 283e 3df7 823d e671 613e
00000390: 8e71 0b3e 1396 89be 9979 6c3e eae2 a13d
000003a0: f7ec 9bbb dad8 d13c 927b b6bd df35 853e
000003b0: f0ab 1c3e 7fa0 8c3e 97af 3f3e 6e27 923d
000003c0: 9022 15bd 0cf9 16bd cd78 2e3e ae4f b33d
000003d0: e840 38bc c292 913c d5b8 09be e222 a93e
000003e0: 55b7 bfbc 0464 d73d 3dbf 913c 52b1 0e3e
000003f0: 1934 ba3d c59a 4a3e 92b2 7e37 b5cd 9cbd
-0.24009974 0.001428194 0.12364408 -0.07344755 0.1423508 0.07392372 0.087356485 0.1552551
-0.036004547 0.19824065 0.1360054 0.066669226 0.03610029 -0.043986708 0.1588995 0.073210604
0.080208026 0.21635504 0.11674862 0.071318395 -0.038402583 0.09228397 0.12888548 -0.03926373
0.22568522 0.15641469 0.02854064 -0.1391824 0.11757501 0.060870927 -0.20905125 0.011344193
0.04573462 0.18150736 0.17440814 0.045293614 0.19569336 -0.19944844 0.0561384 -0.13278036
0.21959059 0.044112843 -0.28709885 -0.106837526 -0.16163413 -0.008958974 -0.1017356 -0.21915503
0.13844563 0.14907277 0.22152469 0.04628273 0.019019764 0.054137647 -0.065279074 0.19465119
-0.0450343 -0.08835822 -0.23349562 -0.14122969 -0.14398588 0.08198081 0.21310756 -0.30150914
0.24983855 -0.09816783 0.08912529 0.044771414 -0.3604912 0.18900377 0.017018782 -0.11049253
-0.017996185 -0.013418403 0.24935174 0.25855035 -0.07974971 0.14198673 -0.16477366 -0.16330436
0.097994514 0.20647168 0.16456646 0.11180154 0.013297576 -0.28147626 -0.09419629 0.05337831
-0.1581399 0.029652532 0.061435163 0.021042882 -0.0572123 0.18752287 -0.019816142 0.14030981
0.0024661806 -0.18072963 -0.03493643 0.101245746 -0.2296339 0.26387614 -0.16639027 -0.07566406
-0.3197417 0.13568483 -0.54291165 -0.21011761 -0.087660864 0.036272883 -0.01356685 -0.031562846
-0.14152753 0.043462794 -0.25341898 0.2811633 0.095919184 0.13075674 -0.11387319 0.08644358
0.0701622 -0.16283242 -0.09533452 0.09884164 0.24112417 0.20737141 0.17691511 0.10756078
-0.063724436 0.03138033 -0.3082717 -0.0761889 0.26638326 0.18093419 -0.25862426 0.11582136
0.070279635 -0.26076996 -0.12590885 -0.20021975 0.26319894 -0.00021158192 0.07262939 -0.010836381
-0.13502353 0.0796444 0.13679841 0.2054932 0.099723294 -0.09081095 -0.119786635 0.20160697
-0.15952343 -0.2518119 0.05870696 0.25847894 -0.10351333 0.23369768 -0.20058982 0.22934105
0.2594266 -0.11134674 0.022169376 -0.2886222 -0.09283007 0.054716453 -0.08347085 -0.09248038
-0.14979778 0.14318575 -0.0146753965 0.24960127 0.063399956 0.18925627 -0.12750839 -0.17304496
-0.103124544 0.020792935 -0.21132071 0.080254674 -0.14859782 -0.120930396 0.09401559 -0.09236703
0.20001633 -0.15294021 0.16156036 -0.05091739 0.0792546 -0.032637462 0.19318452 0.23045965
-0.061141133 -0.19761384 0.00642985 0.028812276 0.2694626 0.19882855 -0.0034577327 -0.11118133
-0.011477062 -0.0141457645 0.012492817 0.03065421 0.12518005 0.12990059 0.014762477 0.10027385
-0.17794722 0.16994913 -0.039924096 -0.07260842 0.054127563 -0.22846517 0.16408204 0.31618434
-0.028753296 0.0035347457 0.15430376 -0.32314843 -0.001713986 0.10043988 0.11700664 -0.21772419
-0.27544194 0.16475974 0.06394813 0.22016105 0.13617536 -0.2687231 0.23093261 0.079046085
-0.004758473 0.025616098 -0.08910288 0.26017663 0.15299964 0.274662 0.18719326 0.07136427
-0.036409914 -0.036858603 0.1703827 0.08755432 -0.011245944 0.017770175 -0.13449414 0.33034426
-0.02340285 0.10517123 0.017791385 0.1393483 0.09091968 0.19785602 1.5181156e-05 -0.07656423

fc3.bias f4 [10]
00000000: 34d7 bfbe b529 51bf 464d 38be 33be 083f
00000010: 398e 3e3f 7ffc e43d 2b51 283e 60bf cabe
00000020: b92a 203e dca3 7cbe
-0.37468874 -0.81704265 -0.17998227 0.5341522 0.74435765 0.11180972 0.16437213 -0.39599133
0.15641297 -0.24671882
